models/sed_model_bbody/model.pt (torch, 747684 bytes, 20 tensors)

0.weight f4 [256, 403]
00000000: 19a2 44bc 24b9 80bb fbca c3bc 1aa4 d3bc
00000010: 44c4 133d a378 1d3c afd7 453d 6f38 b83c
00000020: b093 9dba 288a 533c 92aa 8e3c 6e24 303d
00000030: 6217 26bd 011a b2bc 642f 15bd 3c8b 7bbc
00000040: dd71 423d 4967 0b3d c162 853c ad90 a13c
00000050: f578 0d3c d180 91bc f0bc 20bc f619 0b3d
00000060: cef6 993c 32a2 d93c 697d fa3c e01b 0f3d
00000070: 7cf1 d33c 1700 3bbd 61da 33bd c9d4 bc3b
00000080: 0522 9c3c 3df9 183d 6a4a 063d e596 073d
00000090: 2742 29bc 8c75 2abd 27c5 43bd 2d31 123d
000000a0: 2709 143d d16d 653c 23a1 863c d1f2 65bc
000000b0: bd99 963b 604d 35bd 2eb9 ec3c 232a 033c
000000c0: b094 263d 6912 02bc fa57 f23b 10a3 3ebd
000000d0: 8a82 ccbc b90f 393b fae8 2c3d c53d ccbb
000000e0: 98e1 9fbc e5be a63c 7261 13bd 7d90 e13c
000000f0: 854f 85bc cd2b 65bc 9e5f fa3c 86be c73b
00000100: 6a2b 983b b3ad 9b3c fc99 ec3a 48a3 c2bb
00000110: 2730 b4bb 4495 e53c c7a0 b13c 75ca 3d3d
00000120: c20c 683b dc9e 3b3d 0251 e4bc 605a fe3b
00000130: 46ca 22bd fa36 a53c c580 ddbc 72f7 86bb
00000140: ddc0 ebbc 9955 173d edb8 19bb 969a 4dbd
00000150: adad a03c 8fe8 583b 56f0 04bd 28a1 34bd
00000160: 1f5a 3fbd 84f7 163d e182 2fbc 9ce7 cb3c
00000170: 89dc 60bc ba22 8d3b f6be 6d3c d714 053d
00000180: c748 d7bb cde6 fa3c e785 04bd bde6 583c
00000190: 9fa4 14bd 0af1 eabc 8632 3a3d ae23 783b
000001a0: 558c cf3c ab52 12bd cf63 713c e944 32bd
000001b0: d1be f4bc 3c8a 5fbb 26d4 ed3c 2fbe 2cbd
000001c0: 496b 333b a83d a03a e661 c03c 6d0f 2fbd
000001d0: e036 a53c c39c 21bd 6e7a 8dbc 5775 663c
000001e0: 83ba 3fbc 6cb2 fbbc af30 f6bc b983 333d
000001f0: 35c1 52b9 2ed1 013d 4d05 fc3c 98c0 403c
00000200: f55b 16bd 45a5 14bc 35d8 94bb 352c 2ebb
00000210: d7f8 923b 7f2f 44bd 4372 11bd 0641 3f3d
00000220: d1e0 8abc 4e5b e73b 8918 d9bb 6342 44bd
00000230: 6ef6 403d c207 aeba da53 42bd 3bf2 22b9
00000240: f41d 24bd 3836 e6bc c285 14bd 751d 103d
00000250: 801f 47bd 63c9 233d 0787 313d 1289 3d3d
00000260: efff fdbc c10c efbc 4163 a33c 8ca8 0b3d
00000270: 14a5 17bd 90cf 4fbd 86cd 00bd 305e 8aba
00000280: 2e2e 08bd 461e 02bc 858f ff3c bf54 a4bc
00000290: 35c1 3b3d ced1 3b3d bde3 8c3a ada2 fa3c
000002a0: 6f84 9e3c 05fb 38bd 98a4 97bc 09d2 a33c
000002b0: 0e53 2ebd a74a 283d 4fe3 143d 99f3 c93c
000002c0: 37b1 18bd ea08 053d 1e1a 103d 8b17 dabc
000002d0: fe1d c83b dc4a b0bc 085e fbbc 7328 b73c
000002e0: 581e 1abc b6d4 433d 0880 153d deb1 053d
000002f0: 9403 713c b904 9a3b b1ce 0cbd 3f7c 293d
00000300: f5b7 40bd af62 523c c380 29bc c46c 413d
00000310: a0c9 81bc 22e5 92bc 21b5 8c39 96ac 123d
00000320: 6706 493c b700 393a 78ef 383d 25b9 f73c
00000330: cb91 8abb cf88 89bb 7e9b 1abd a524 413c
00000340: 63f2 283c d6b7 ce3c 46f1 953c 634f 0abd
00000350: b00d 4ebd 799c e3bc 848a 243d 9463 2d3d
00000360: b4c8 e4bc c7fd 193d 57a4 f53c 3df2 ae3c
00000370: 135f 3bbd 7c7d 1bbd 8257 b1bc d69e 47bc
00000380: 85dd d43c 5f70 9ebc c61b 3fbd 65f9 1f3d
00000390: 3fd4 67bc 2aaa 3b3d 69a5 16bd af6a 943c
000003a0: 8276 953c a7b7 543c c67a 0cbc ce75 e53c
000003b0: ef27 41bd 987d 143d f24e f7bc c6dc d43b
000003c0: 7662 073d fb90 05bc 4215 4b3c ecea af3b
000003d0: 5705 94bb fb41 41bd 97d9 cebb e132 a93c
000003e0: 422e 0bbd def3 f5bc 87e7 e83a b573 273c
000003f0: d888 ecbc 83c8 553c 9739 223d ab0c 00bd
-0.012001538 -0.0039283205 -0.0239005 -0.025835086 0.036075845 0.009611282 0.048301395 0.022487847
-0.0012022164 0.012911357 0.017415319 0.043003492 -0.040549643 -0.021740915 -0.03642215 -0.01535302
0.04747187 0.034034047 0.016282441 0.019722307 0.008634795 -0.01776162 -0.009810671 0.033960305
0.018794443 0.026566599 0.030577378 0.034938693 0.025871985 -0.045654383 -0.043909434 0.0057626707
0.01905919 0.037347067 0.03278581 0.03310289 -0.010330713 -0.041616008 -0.04779544 0.03569143
0.03614154 0.014003233 0.016434258 -0.014034943 0.0045959638 -0.044263244 0.028896894 0.008005652
0.040669143 -0.00793896 0.0073957415 -0.046542227 -0.02496459 0.0028238131 0.04221437 -0.0062329494
-0.019516751 0.020354697 -0.035981603 0.027534718 -0.01627327 -0.013987494 0.030563172 0.00609571
0.0046438472 0.019003725 0.0018051262 -0.005939875 -0.0054989043 0.028025277 0.02168311 0.046335656
0.0035407995 0.045805797 -0.027870659 0.0077622384 -0.039743684 0.020167816 -0.027038941 -0.0041188532
-0.028778488 0.036946867 -0.0023456172 -0.050196253 0.019614065 0.00330976 -0.032455765 -0.044099003
-0.046716806 0.036857143 -0.010712356 0.024890713 -0.013724455 0.0043071182 0.014510861 0.032490578
-0.006569955 0.030627633 -0.03235426 0.013238606 -0.036289807 -0.02867939 0.04545834 0.0037863064
0.02533547 -0.03572337 0.014733269 -0.04352275 -0.029876145 -0.0034109494 0.029031824 -0.04217356
0.002737718 0.0012225406 0.023484182 -0.04273932 0.020167768 -0.03945614 -0.017270293 0.014066062
-0.011702183 -0.030724727 -0.030052511 0.043826792 -0.00020099136 0.03169363 0.030764246 0.011764668
-0.03670879 -0.009072606 -0.0045423754 -0.0026576642 0.0044852304 -0.04789686 -0.03550936 0.04669287
-0.016952904 0.007060445 -0.0066252393 -0.047914874 0.047110014 -0.0013277458 -0.04744325 -0.00015539762
-0.040067628 -0.028102025 -0.036260374 0.035184342 -0.048614025 0.03998698 0.043341663 0.0462733
-0.031005828 -0.029180886 0.019944789 0.034096286 -0.037022665 -0.050735056 -0.031446002 -0.0010556635
-0.033247165 -0.007941788 0.031196365 -0.020059941 0.045838553 0.045854382 0.0010749024 0.030595148
0.019350259 -0.045161266 -0.018511102 0.019997614 -0.042559676 0.04108682 0.03634959 0.02465229
-0.03727838 0.032479204 0.035181157 -0.026622554 0.006107091 -0.02152007 -0.030684486 0.022358155
-0.009406649 0.04781028 0.036499053 0.03264033 0.014710326 0.00470027 -0.034376804 0.041378256
-0.047050435 0.012840911 -0.010345641 0.047222868 -0.015843213 -0.017931525 0.00026837832 0.035809122
0.012269593 0.00070572965 0.04515025 0.030239651 -0.0042288057 -0.004197217 -0.037745945 0.011788522
0.010311696 0.025234144 0.018303525 -0.033767115 -0.050306022 -0.027784573 0.04017116 0.042331293
-0.027927734 0.037595537 0.02998559 0.021355743 -0.045744967 -0.037961468 -0.021648172 -0.0121838655
0.025984535 -0.019340692 -0.046657346 0.0390562 -0.0141497245 0.045816578 -0.03677884 0.018117277
0.018244985 0.012983239 -0.008574193 0.028010275 -0.047157224 0.036252588 -0.030189011 0.006496045
0.033052884 -0.008152242 0.012395205 0.005368581 -0.004517238 -0.047182065 -0.00631256 0.020654144
-0.03397966 -0.030023511 0.0017769196 0.010220458 -0.028873846 0.013048294 0.039605703 -0.03126208

0.bias f4 [256]
00000000: f7c4 0cb7 c707 c13c f6fa f03b 6769 c9bc
00000010: 1dfd 5e3c 8105 f73b 8368 633b 470b 723c
00000020: d2f5 1139 e2d1 2ebc 26e6 a83c 0b09 123c
00000030: 4c21 37bb 21ee 93bc 7b8f 9a3c f826 9a3b
00000040: 4156 ccba 5c61 a03c f0d8 10bc 8ca3 92bb
00000050: a31f 0fbb bc9f 593c 4297 0cbc 3105 a137
00000060: b85a 463c dd8b efb8 729d 8abc be6b d3bb
00000070: 3347 003b 90ac 353c 57ec 49bc f8ad a437
00000080: 44c1 4abc b701 b335 26d8 4033 acf5 2c3c
00000090: 9a8a c43b eec3 a5bb c4dc 54bb 6943 133c
000000a0: 8608 bbbc 2a92 6c3c 592b 30bb c8ae bebc
000000b0: 4029 943c 570d 34bc 937b 2cbc b370 a73c
000000c0: 8a73 0439 38ef a93b 3e04 bf3c 07a9 b1bc
000000d0: cf53 19b5 921f 66b9 e461 0ab4 8eb2 ddb9
000000e0: 0c8a f0b8 eb13 17b5 4452 8639 6210 733c
000000f0: dd04 8139 a238 85b7 6cbd 07bc e0b9 cd38
00000100: e52a deba 6f56 d13a c485 3b3b dfd2 c2ba
00000110: 03e9 b639 6e46 e437 326d 1aba 5260 90bc
00000120: 4118 d836 ca37 5bb5 34aa 7e3b 4b9d 7037
00000130: fbf5 433c 5055 c4ba 91b7 553b 1c3b b135
00000140: e25c aa3c 9dc5 64bb 512a b73b 3882 c4bc
00000150: 50d3 a0bc ef30 593c 87f2 28bc eef6 58ba
00000160: 8ba5 1f3b 402b 8e34 b6bb a93c 7722 083b
00000170: 00c3 6eb9 dd9f 063c 06b6 e03b 5c34 713c
00000180: 31c8 a73c 1ad1 42bc 96ec a0b7 85b1 b0bc
00000190: a55d c93c 24b3 133a f79b 113b b42f 283c
000001a0: 7bab 053c 5f61 60bc 3e9c 913c 89e1 99bc
000001b0: 4285 c9bb 9849 09bc 549e bdbb 0073 92b8
000001c0: e4f9 99bc bd8c 443c 4af5 bb3c 69b8 9c3c
000001d0: e134 c5bc f9e3 82b7 ecf8 0fbb 48cd 7c3b
000001e0: 8cdb 3b36 d8d6 5c37 41cf c139 afc3 983c
000001f0: 4594 7e37 ee00 a73c e0d7 fb39 6011 e7ba
00000200: 4138 52bc ff3b 40b9 49ee 223b e3ed 7b3c
00000210: e283 5139 bfbd 3fbb 801b 503c 4d11 893c
00000220: 3f3c 323c 035f 08bb 325c 1b3c f981 dbbb
00000230: 83d0 8cbc 0be9 c035 6d79 883c 8d37 3338
00000240: 41e4 d1b3 e8f4 e439 4c46 c2bb 032e c3b5
00000250: e5c5 bb3a 8ded 86ba d99a 51bc cb77 9c3b
00000260: 2405 8ab7 0617 3fb5 c482 51bc f0cc 843c
00000270: 86e1 8338 5aca 223c 4e22 1bbb 30ff 70ba
00000280: b3a2 ed37 85cb 27bc b96f a33b 1942 683c
00000290: b327 c7b8 41d0 aabb 4292 4abc a8af 1d3c
000002a0: f2c2 c4bb 018a 833c 4182 da39 7daf 7aba
000002b0: e136 2a39 9c3d 123c 8bee f434 e1e6 46b8
000002c0: e799 b6bc 7eda 83bc 6029 58b5 7a70 3bb5
000002d0: 1227 6abc d429 5a37 36f4 523c aee1 8d3c
000002e0: 91f9 883b acda 793c 171d b1ba 1310 47bb
000002f0: 342d 563b 7fa1 b63c 6aab 35ba 22c3 8d35
00000300: 26b2 183a 5b97 833c 1686 b83c 6e3d 0dbb
00000310: 2de6 d73a df0f ccbb 9919 2b39 f763 a039
00000320: bdde 963a d6d7 f3b4 df2d 85bc 1ed6 0fbb
00000330: 0c82 86bb a61c 4535 f506 2936 bacf 8b3c
00000340: c3c4 3eb8 bba7 963c deed 253c 74b6 20ba
00000350: 626c 99b6 4986 353c 174a 99b5 bdf8 babb
00000360: 18c1 9a3b 3f64 a63c d720 8e3b 0ed9 2a3a
00000370: 04fc 54b6 f868 5a3c 1dd1 bc3c 6c50 3a3c
00000380: 0e65 c1b8 be3d b9bc 8925 5d3b dc43 5535
00000390: b71d 4fbc a17f 3f38 1dd8 8a3b f8cb 26b7
000003a0: 57ab 3a38 6411 da3b 5ef4 c338 b9a0 9c36
000003b0: 04bf 833a 14b5 64bb af3f a937 b35a 82bb
000003c0: a6f0 313a 71d0 d1b5 6650 1f3b ba37 a53b
000003d0: 9410 1fbc 8d5c 1dbb a356 3ab6 6ffd 11b6
000003e0: ecee 8cbb 245c 2439 915b 4b3c a15f db3a
000003f0: fb32 e5bb 5ce7 503b 0e0f 2fba ccae c9bc
-8.39051e-06 0.023563279 0.0073541356 -0.024586393 0.013610152 0.007538498 0.0034699745 0.014773197
0.00013919853 -0.010670157 0.020617556 0.008913289 -0.002794343 -0.018057885 0.018867245 0.0047043525
-0.001558967 0.019577675 -0.008840784 -0.0044750627 -0.0021838925 0.013282713 -0.008580985 1.9195113e-05
0.01210659 -0.0001142246 -0.016920779 -0.006452053 0.0019573688 0.011088505 -0.012324414 1.9631334e-05
-0.01237518 1.3337038e-06 4.490007e-08 0.01055662 0.005997968 -0.005058757 -0.003248022 0.00898824
-0.022831213 0.014439145 -0.0026881306 -0.023276702 0.018086076 -0.010989509 -0.010527509 0.020439481
0.00012631543 0.005185988 0.023317453 -0.021687044 -5.71189e-07 -0.0002194627 -1.2887864e-07 -0.00042285438
-0.00011469805 -5.628087e-07 0.00025619764 0.014835449 0.0002460842 -1.5881207e-05 -0.008284908 9.809784e-05
-0.001695004 0.0015971194 0.0028613666 -0.001486387 0.00034887352 2.7212514e-05 -0.0005890905 -0.017624054
6.440125e-06 -8.166504e-07 0.0038858773 1.4341737e-05 0.011960502 -0.0014979038 0.0032610635 1.3204731e-06
0.020796243 -0.0034907826 0.0055897613 -0.023987874 -0.019632012 0.013256296 -0.010311729 -0.00082765415
0.0024360146 2.648103e-07 0.02071939 0.0020772496 -0.00022770092 0.008216825 0.0068576364 0.014721956
0.0204812 -0.011890674 -1.9183655e-05 -0.021569023 0.024580786 0.0005634299 0.0022218206 0.01026528
0.00815856 -0.01369509 0.017774697 -0.018784301 -0.006149919 -0.0083793625 -0.0057866964 -6.983243e-05
-0.018795915 0.011996445 0.022944111 0.019130902 -0.024073066 -1.5603366e-05 -0.0021968437 0.0038574506
2.7992965e-06 1.3163044e-05 0.00036966245 0.018647997 1.51741015e-05 0.020386185 0.0004803529 -0.001762908
-0.012830795 -0.00018332897 0.0024861267 0.015376541 0.00019980923 -0.0029257385 0.012701869 0.016731882
0.010878622 -0.0020808585 0.00948243 -0.0066988436 -0.01718927 1.4372939e-06 0.016659463 4.272866e-05
-9.77384e-08 0.00043670018 -0.00592879 -1.4542023e-06 0.0014325945 -0.0010294184 -0.012793266 0.0047750226
-1.6453276e-05 -7.118655e-07 -0.012787525 0.016211003 6.288574e-05 0.00993594 -0.002367157 -0.00091932993
2.8328364e-05 -0.010241394 0.0049876836 0.014175915 -9.496454e-05 -0.005212814 -0.012363972 0.009624399
-0.0060046846 0.016057016 0.00041677247 -0.0009562893 0.00016232907 0.008925822 4.5622104e-07 -4.74219e-05
-0.022290183 -0.016095396 -8.052648e-07 -6.9826604e-07 -0.014291542 1.3003551e-05 0.012875607 0.017319527
0.0041801413 0.015249889 -0.0013512698 -0.0030374571 0.0032680752 0.022293804 -0.0006930145 1.056211e-06
0.0005824886 0.016063383 0.022524875 -0.0021551508 0.0016471796 -0.006227478 0.00016317367 0.00030592058
0.0011510473 -4.5419318e-07 -0.016257225 -0.0021947692 -0.0041048583 7.342991e-07 2.5187012e-06 0.017066825
-4.548278e-05 0.018390527 0.010127513 -0.0006130703 -4.5723727e-06 0.011079379 -1.1420951e-06 -0.0057059214
0.0047227256 0.020311473 0.004337411 0.0006517329 -3.1737154e-06 0.013330691 0.023048932 0.011371713
-9.22178e-05 -0.022612449 0.0033744297 7.944743e-07 -0.012641362 4.5656812e-05 0.0042371885 -9.941861e-06
4.450543e-05 0.006654905 9.3438415e-05 4.667873e-06 0.0010051434 -0.003489797 2.0176025e-05 -0.0039780973
0.00067878736 -1.5632378e-06 0.0024309396 0.0050420435 -0.009708542 -0.0024011463 -2.776659e-06 -2.1754201e-06
-0.0043009426 0.00015674584 0.012411968 0.0016736874 -0.0069946027 0.0031876182 -0.00066779635 -0.024619482

1.weight f4 [256]
00000000: e9c3 7f3f 067e 7e3f 69fe 7e3f ddbd 803f
00000010: e28b 803f 60f2 7f3f f134 803f 167e 803f
00000020: dca6 7d3f 8d47 803f 28cd 803f 69f3 7d3f
00000030: e089 7f3f 956f 7f3f 69c1 7e3f 9a8e 803f
00000040: d2a3 7f3f c249 803f b803 803f a7f2 7d3f
00000050: f561 803f 2745 803f c453 813f 2b6c 803f
00000060: 4e5f 803f 6737 803f 6c97 803f 86e7 7e3f
00000070: c2b9 803f 4044 7e3f 11ad 7f3f 37c6 7e3f
00000080: f02f 803f 7646 803f a925 803f 2b01 813f
00000090: 914b 813f 3116 7e3f 318c 803f 6005 803f
000000a0: 2481 803f e25f 803f d3bd 803f ed9f 803f
000000b0: 4684 7d3f 75f8 7e3f d3e8 803f 515b 803f
000000c0: 2fd1 7e3f b13e 7e3f 116a 7f3f 542e 813f
000000d0: 55c4 7f3f 2c4b 7f3f 5d68 803f 2617 7f3f
000000e0: 22d5 7f3f 308e 803f 2f83 803f cc5d 813f
000000f0: 33e4 7e3f 96b3 7f3f 171e 813f 0a29 7d3f
00000100: ed0e 7e3f 80cd 803f e741 803f 4797 803f
00000110: e450 803f fa04 803f 1c61 7e3f 102d 7f3f
00000120: b70d 803f 0d0b 803f 5bc7 7e3f 5c34 803f
00000130: 74ee 7e3f f6d2 7f3f 8080 7e3f 205b 803f
00000140: 0460 7f3f a943 803f 269f 7f3f cb9c 7f3f
00000150: 1499 7f3f cbe3 7e3f c604 803f c7e9 803f
00000160: e010 803f 5c5e 803f 4b7e 7e3f b81a 813f
00000170: a26e 7e3f 63fd 7e3f 123f 803f dbdc 803f
00000180: 7dfd 7f3f b760 7e3f 9b90 803f cfae 7e3f
00000190: 10b9 7e3f 636f 7f3f c079 803f 911a 803f
000001a0: 778a 803f 79ff 803f 7612 7e3f c421 803f
000001b0: d453 803f 2532 7f3f 8b8f 803f 6a28 803f
000001c0: db89 7e3f 614c 7f3f 826f 803f 0984 7e3f
000001d0: 2812 7e3f d1cb 7e3f a91a 803f 837d 803f
000001e0: 4687 7f3f 8815 7d3f eca3 803f 3143 803f
000001f0: 7a2c 803f ec10 813f b71b 7e3f 6bb9 7f3f
00000200: cd67 803f 44c7 7f3f 968d 7f3f 3350 7f3f
00000210: adad 803f b63b 7f3f 56b2 7f3f c45f 7e3f
00000220: 567e 803f 4812 7f3f 36ca 7f3f 30be 7c3f
00000230: 6f43 7f3f e865 7e3f 53f1 7d3f e333 7f3f
00000240: 391e 7f3f 692b 803f 1f58 7f3f 4c86 803f
00000250: 396f 7e3f 7882 803f bf4c 813f 3a89 803f
00000260: b1c6 7f3f d63a 803f 064d 803f c4e9 7f3f
00000270: 5424 7f3f 4b06 7e3f d327 7e3f d67f 803f
00000280: fedc 7e3f c9ab 7f3f e19c 7d3f 2ff8 803f
00000290: 6d26 803f 4d4a 803f 8f61 7f3f d807 803f
000002a0: 7f02 803f bdde 7f3f 4249 7f3f 34b6 7e3f
000002b0: 45af 7d3f 2e90 803f 2191 7f3f 14b2 813f
000002c0: 275c 7f3f 07d7 7f3f f6a7 7e3f 1c1c 803f
000002d0: 6a53 7f3f 0280 7f3f 8811 803f 8e26 813f
000002e0: 6419 803f e77d 7f3f d361 7f3f 5ab9 7f3f
000002f0: 510d 7e3f 09d5 7e3f 590e 813f 8eda 803f
00000300: 1916 803f 8df8 7e3f 2469 803f cfb0 7f3f
00000310: d8dd 7e3f 59d9 813f d234 7f3f 86a7 7f3f
00000320: f0f7 7f3f 51f6 7d3f 59a0 803f 827c 813f
00000330: 9d00 7f3f 4550 7f3f 5c52 803f 9aa4 803f
00000340: 7be3 803f 25fa 7f3f 3665 7f3f 75cc 803f
00000350: 54a7 803f 2d30 813f 1ab7 7f3f 0cea 7d3f
00000360: e606 803f 3b00 7f3f c413 803f 5c18 7f3f
00000370: cf82 803f 4d70 813f 250c 7f3f 103e 803f
00000380: 9443 7f3f b365 7e3f 31d7 803f cb75 7f3f
00000390: 7ff4 7e3f d55e 7f3f bcd1 7e3f 85da 803f
000003a0: edb7 7d3f 724b 803f c993 803f d2f7 7e3f
000003b0: 1d3c 813f 187e 7f3f 9f59 7f3f 57fb 7e3f
000003c0: 5807 7e3f be32 803f a365 803f 76cf 7f3f
000003d0: 3afb 7d3f 4c1b 803f 6e15 803f 2dd9 7d3f
000003e0: d4ff 803f ee7d 803f b04c 7e3f e331 803f
000003f0: 9069 7e3f 80ef 803f 7958 803f 595e 803f
0.9990831 0.99411047 0.9960695 1.0057942 1.0042689 0.9997921 1.0016156 1.0038478
0.9908273 1.0021836 1.0062609 0.9919954 0.99819756 0.99779636 0.9951387 1.0043519
0.99859345 1.0022509 1.0001135 0.99198383 1.0029894 1.0021104 1.0103688 1.003301
1.0029085 1.0016907 1.004621 0.99572027 1.0056689 0.9932289 0.99873453 0.995212
1.0014629 1.0021503 1.0011493 1.0078481 1.0101186 0.9925261 1.0042783 1.000164
1.003941 1.0029261 1.005793 1.0048805 0.9902996 0.99597865 1.0071052 1.0027868
0.9953794 0.9931441 0.9977122 1.0092263 0.99908954 0.9972408 1.0031849 0.99644697
0.9993459 1.0043392 1.0040034 1.010675 0.99566954 0.998834 1.0087308 0.98890746
0.99241525 1.0062714 1.0020112 1.0046166 1.0024686 1.0001519 0.9936693 0.99678135
1.0004185 1.0003372 0.9952294 1.0015979 0.995826 0.99931276 0.99414825 1.0027809
0.99755883 1.0020648 0.99852216 0.9984862 0.99842954 0.99566334 1.0001457 1.0071343
1.000515 1.0028796 0.9941146 1.0086279 0.9938756 0.9960539 1.0019248 1.00674
0.9999617 0.99366325 1.004413 0.99485487 0.9950113 0.9977934 1.0037155 1.0008107
1.0042256 1.0077964 0.9924692 1.0010304 1.0025582 0.9968589 1.0043806 1.0012333
0.994291 0.9972592 1.003403 0.9942022 0.99246454 0.9952975 1.0008136 1.0038303
0.99815786 0.9886098 1.0050025 1.0020505 1.0013573 1.0083289 0.9926104 0.998923
1.0031677 0.9991343 0.9982542 0.9973175 1.0053002 0.99700487 0.99881494 0.99364877
1.0038555 0.9963727 0.99917924 0.98727703 0.9971227 0.99374247 0.99196357 0.9968855
0.9965549 1.0013248 0.9974384 1.0040984 0.9938846 1.0039816 1.0101546 1.0041878
0.99912554 1.0017955 1.0023506 0.99966073 0.9966481 0.9922835 0.99279517 1.0039012
0.9955596 0.998715 0.99067503 1.007574 1.0011727 1.0022675 0.9975824 1.0002394
1.0000762 0.99949247 0.9972116 0.9949677 0.99095565 1.0044 0.99830824 1.013247
0.9974999 0.9993748 0.9947504 1.0008578 0.99736655 0.998047 1.000535 1.0089891
1.0007749 0.99801487 0.9975864 0.998922 0.9923907 0.99543816 1.0082504 1.0066698
1.0006744 0.9959801 1.0032086 0.99879164 0.99557257 1.0144454 0.9968997 0.99864995
0.999877 0.99203974 1.0048934 1.0116122 0.9961031 0.99731857 1.0025134 1.0050232
1.0069422 0.99991065 0.9976381 1.0062395 1.0051064 1.0092827 0.99888766 0.9918525
1.0002105 0.99609727 1.0006032 0.99646544 1.003992 1.0112396 0.99627906 1.001894
0.9971249 0.9937393 1.0065671 0.9978911 0.9959182 0.9975408 0.9953878 1.0066687
0.99108773 1.0023024 1.00451 0.99596894 1.009647 0.9980178 0.99746126 0.99602264
0.99229956 1.0015485 1.0031017 0.99925935 0.99211466 1.000833 1.000654 0.9915951
1.0078073 1.0038431 0.99335766 1.0015224 0.99379826 1.007309 1.0027 1.0028793

1.bias f4 [256]
00000000: a1c2 a8bb 754e 35bb cf2f 86bb cbfc ed3b
00000010: b963 b63b 8a0b 2f3a 347f a6ba f830 8b39
00000020: 7484 c8bb 11f8 203b c2e0 883b c3a8 04bc
00000030: 281a 983b 2621 42ba fb57 1dbb fbdb 943b
00000040: 5d4a 6dba 580f b83b 5ffc 8f3a eb7d 97bb
00000050: 862d 3cbb 8500 04bb ad12 403c 4d3d 243b
00000060: 58e2 963b b1d7 6c3a e6c4 ed3b 5172 89bb
00000070: d614 df3b 1caa 6ebb aabc 893b 476d c7bb
00000080: f668 3f3b 531b 373b c751 a23a a0dd 2b3c
00000090: fd7f ec3b d062 e5bb b9b9 1a3b 6554 a5b8
000000a0: 0103 ec3b c0fd 673b c907 b63a ed09 dc3b
000000b0: 0d35 03bc de83 0dba b5f5 fc3b 50da e93a
000000c0: 7105 5d3b 4d72 37bc 23bc 7b3b e53f 1a3c
000000d0: 5a39 873b f9ce eeba d755 123b 6a6c f3b9
000000e0: 9b12 f63a b240 4fba ceb4 cabb c9ed e93b
000000f0: d22f f0bb a9e9 543a debe ca3b 7144 40bc
00000100: e0c3 7abb 93e2 a73a 7227 e13b d201 88bb
00000110: fe4c b73b ec28 62ba 4cfa bebb f97d 46bb
00000120: ba17 a4ba e1f2 b53a 2d2f a13a 0959 f939
00000130: 3ade a4bb 3acf 73bb 23dc ddbb 9b88 21b8
00000140: 9cdc d0b8 3b98 2239 f0d0 01bb cba5 e23a
00000150: a70b d6ba 8031 19bb a64b e039 0ea4 a33b
00000160: 1581 813b ae2b 9e3b 79a9 b9bb f042 f63b
00000170: c78d 54bb c376 e73b 7596 c13b 81d2 6a3b
00000180: aa7c 6b3b 25b4 93bb 857e 903b 2569 dbbb
00000190: 4023 8cbb d13b 803a bdda 8eba b5b4 1e3b
000001a0: 0618 223c 7d48 053b ccd2 91bb 7035 293b
000001b0: 39da 003b bcd2 99ba 4dcf 483b 266c d9b8
000001c0: 0007 16bb a82d 8ebb f47a dd3a f1b6 97bb
000001d0: a907 efbb 9331 4ebb 3d46 d2b9 3004 aa3a
000001e0: e101 7c3b 7384 40bc 9944 073c dda2 e43b
000001f0: 4414 223b e48a 6b3b 0987 acbb 522d d33a
00000200: d0f9 9436 3425 bc36 2d4a 5dbb f675 4cbb
00000210: 1f13 ce3b 9232 aeba a21a bb3b 7cc2 35bc
00000220: 78b3 703b 39aa d3ba 15e2 e0ba a84b 11bc
00000230: 85fd 93bb 4ffb bbbb c5ca 87bb 9073 5eb9
00000240: 3380 9eba 9ffe 353b aa56 13ba 20b5 ef3b
00000250: ca0c 3fbb 54c3 a63b 27f2 153c b357 043c
00000260: f1c0 47b9 9cbb 773b a7ea 483b bf3d 07bc
00000270: 9aa1 0abb 0f84 88bb c427 adbb ee2c 673b
00000280: c2b5 a5ba 127b 8638 fb66 07bc 64ef db3b
00000290: c9f5 abba 5f7d 0a3b 7bc7 61bb 54b4 f7bb
000002a0: b42f 033a f4a6 2fbb 7bb8 7fbb 23e7 c0bb
000002b0: cbf6 f1bb ca15 243c ad67 303a e4d7 b83b
000002c0: 1747 3f3a d95c cb38 c94c e1bb fe8c bc3a
000002d0: 163c 95bb 9ed8 b3bb 187d 353b 4620 803b
000002e0: 2218 0d3b c3a3 04ba 577e d4ba 29b1 4a3b
000002f0: 0f1e 14bc 5ec9 f7ba 4931 f53b 6a32 e3ba
00000300: 94a4 9d39 2900 a8b8 3afd 803a ff01 273a
00000310: 3f88 ac3a a6fc de3b 844e 02ba 4094 18bb
00000320: f8a2 b23b bd76 62ba e4d7 da3b 09a2 163c
00000330: 473a b1bb 8303 81bb cf41 313b 4530 133b
00000340: 28b7 b93b 095e f63a 5c61 b73a 914f a83b
00000350: 39cf 563b 8df1 203c c14c 0f3b e882 1cbc
00000360: b55d 29ba 48f7 1abb ded7 e83a 397d 403a
00000370: 3d48 913b 5421 3d3c a507 86ba 1e8d 40bb
00000380: 6c22 f33a d96e f5bb 15f3 0e3c 8412 6eba
00000390: b8d3 4bbb 58a7 5b3b 3cc4 84bb 7e15 cf3b
000003a0: b67b d7bb a6b7 983b c25a be3b ee82 95bb
000003b0: 2407 213c 45e0 8f3a 0797 1fbb 8a1c 54b8
000003c0: cf0b dbbb 1c05 22ba ad21 0d3c 7716 243b
000003d0: e6cf f2bb 5142 343b 18d1 923a b8e0 dabb
000003e0: 7f02 053c 3559 803b 4a1a 83bb 9a6f 4d3a
000003f0: 5a03 9dba 2048 0c3c 6f76 b13b a7da bf3b
-0.0051501547 -0.0027665172 -0.0040950547 0.0072628013 0.005566087 0.00066774397 -0.0012702704 0.0002654863
-0.0061193053 0.0024561922 0.004177184 -0.008096877 0.00464179 -0.0007405452 -0.002400874 0.0045428253
-0.00090519135 0.0056170635 0.0010985247 -0.004623165 -0.0028713658 -0.0020141911 0.011723203 0.0025060952
0.004604619 0.0009034826 0.007256138 -0.004194536 0.0068079038 -0.003641731 0.0042033987 -0.006086025
0.0029206849 0.002793987 0.0012383991 0.010489851 0.007217406 -0.0070003048 0.0023609234 -7.883533e-05
0.0072025065 0.003539905 0.0013887818 0.0067150504 -0.008008254 -0.0005398373 0.0077197202 0.0017841551
0.0033725167 -0.011196685 0.0038411699 0.009414648 0.00412671 -0.0018219642 0.0022328997 -0.00046429347
0.0018773855 -0.00079060637 -0.0061861044 0.007138942 -0.0073299194 0.0008121976 0.006187304 -0.011735068
-0.0038263723 0.0012808613 0.0068711573 -0.0041506076 0.005593895 -0.00086273137 -0.0058281776 -0.0030287488
-0.0012519278 0.0013881588 0.0012297385 0.00047559317 -0.0050313743 -0.0037202374 -0.006770627 -3.8512615e-05
-9.9593046e-05 0.00015506234 -0.0019808374 0.0017291842 -0.0016330377 -0.0023375452 0.00042780972 0.004993922
0.0039521554 0.0048269844 -0.0056659547 0.007515304 -0.0032433139 0.007063718 0.0059078285 0.0035831037
0.003593246 -0.004507559 0.0044096136 -0.006695884 -0.004276663 0.0009783452 -0.0010898929 0.0024216597
0.009893423 0.0020337396 -0.004450178 0.0025819205 0.001966132 -0.0011735777 0.003064114 -0.000103675105
-0.0022892356 -0.0043389387 0.0016897605 -0.0046299626 -0.0072946143 -0.0031462654 -0.00040106653 0.0012971219
0.0038453268 -0.011750328 0.008256101 0.0069774226 0.0024731318 0.003594094 -0.005265121 0.0016111529
4.4398257e-06 5.6071676e-06 -0.0033766136 -0.003119824 0.0062889005 -0.0013290218 0.005709962 -0.011093732
0.0036728065 -0.0016148753 -0.0017157221 -0.0088681355 -0.004516306 -0.0057367454 -0.004144045 -0.0002121462
-0.001209265 0.0027770174 -0.0005620519 0.007315293 -0.002915191 0.005089203 0.009151972 0.00807755
-0.00019049995 0.0037801033 0.0030657442 -0.0082544675 -0.002115345 -0.0041661332 -0.0052842814 0.0035274583
-0.0012642669 6.4125416e-05 -0.008264299 0.006711887 -0.0013119514 0.0021131856 -0.0034451175 -0.0075593386
0.0005004362 -0.0026802393 -0.003901987 -0.0058869286 -0.0073841563 0.010014961 0.0006729316 0.0056409705
0.0007296665 9.6970885e-05 -0.0068756086 0.0014385281 -0.004554282 -0.0054884693 0.002769297 0.0039100973
0.0021529277 -0.0005059803 -0.0016211969 0.003092835 -0.00904037 -0.0018904617 0.007482682 -0.001733375
0.00030067994 -8.010894e-05 0.0009841092 0.0006370842 0.0013163163 0.0068050204 -0.0004970806 -0.0023281723
0.0054515563 -0.0008638909 0.006678568 0.009193906 -0.0054085585 -0.003937186 0.0027047282 0.002245919
0.005667586 0.0018796335 0.0013990807 0.005136438 0.0032777323 0.009823215 0.0021865817 -0.009552695
-0.0006460802 -0.0023645926 0.0017764529 0.00073428784 0.0044336603 0.011543591 -0.0010225667 -0.0029380987
0.0018549687 -0.0074900207 0.008724947 -0.00090817385 -0.0031101536 0.0033516493 -0.0040517133 0.0063197007
-0.006576027 0.0046605645 0.005809159 -0.004562727 0.009828363 0.0010976872 -0.0024351494 -5.0571318e-05
-0.0066847573 -0.0006180571 0.008613986 0.0025037804 -0.0074100373 0.0027505348 0.0011201231 -0.0066796206
0.008118271 0.0039168843 -0.0040009366 0.00078367593 -0.0011979148 0.008562118 0.0054157297 0.005854923

1.running_mean f4 [256]
00000000: 8fb4 1fbf 2956 90bf b87b 43bf 945c 54bf
00000010: 1cf7 7a3f 983e 643f 44e4 b73f 5d70 ce3e
00000020: ef9c ebbe 7425 02bf 5124 a4bf 8215 1bbf
00000030: 8b31 453f ea76 c83d 6cfa eb3e 428c 33be
00000040: b682 3e3f 477a cebf 74a4 3cbf 49b0 c03e
00000050: 2500 66bf 0b24 32bf 75dd 99bf 7786 343f
00000060: 30d2 5c3f d17c 5c3f 82a2 183f 4a42 e8be
00000070: f51d cc3e 8b3a 173e ca59 773f 81b8 16be
00000080: 515b 443f 2a56 2ebf 6815 87be 3b77 683f
00000090: 14b2 6bbf 0e84 843e 20a0 84bf eb83 aabf
000000a0: 2656 073f 365d 343f c896 7bbf 703d aa3f
000000b0: eb53 393f a4b8 21be 51ea 833f 1d33 fcbd
000000c0: 00a2 e73f 903c bebf bda4 3e3f f7bd 593f
000000d0: 5498 853f bd24 a5be 917e 5c3f adb6 423f
000000e0: 26b1 2c3e 63a0 5abf a49a 9bbf 5e22 cfbe
000000f0: 6458 4fbf 0655 433f 15d8 4bbf 87bf 0bbf
00000100: b647 a53e a431 0bbf aa5e 663f 4088 50bf
00000110: 85ba 88be 702c b1bf c418 b43e c575 f93b
00000120: 4f35 7cbf 71cd 42bf d347 463f 8682 043f
00000130: 741e 433e 7ff1 68bf 7f14 9cbe 9467 27bf
00000140: e226 0d3e 9d4b 913e 5301 1ebf 1b0f 1abf
00000150: a011 e9be 4b38 503f 4175 6ebf 26e0 f8be
00000160: 15e2 173f d626 2cbf b1ea 43bf 6550 9d3f
00000170: 652d d6be 7a78 573f a9a8 71bf 53c5 e3be
00000180: 4640 373f 16fd 873f 8895 523f 1573 113e
00000190: ac75 903e 2f8d 683e 093e 643f 9c97 353f
000001a0: 408f 233f 7b20 97be c284 ba3e 0b9c 053e
000001b0: 1c5e 61bf 9c8e 6e3f 6a80 3cbf c6b2 c63e
000001c0: e64d 66bf 33d6 2dbf c287 5abf 4acb 3b3f
000001d0: ca83 523e e266 223f 0c67 eebe 908b 1cbf
000001e0: 1eee da3e 15bb 6b3e 99a4 813f 99fb 30bf
000001f0: 4c32 9fbf 4436 a4bf 0d62 4a3d b81b b43f
00000200: 5ca7 5dbf 6be2 6abe d265 5bbf c75e 5d3f
00000210: b42e ccbf 7cde c2be 4164 e33e 8788 74bf
00000220: f5fb 7c3f e8fd ffbe 69ab ba3e 3151 e33f
00000230: adc9 623f ccad 4b3f 73e4 623e b2ab 143f
00000240: 2ada 683f d89b 95bf b340 ac3f f8e4 683f
00000250: 1b9e c13e 93de 433f d66c ab3f ffd3 293f
00000260: 82ef c93e e90f 843f f6cb 10bf 83a2 b4bf
00000270: 22f9 37bf 4ab9 523f 556b cebe 658a 963e
00000280: 2143 103f 3702 25be 6686 333f bba5 79bf
00000290: 1665 11bf 9a05 713f 678f 2dbf f7d4 b0bf
000002a0: 089f 3b3e aa2a 9cbd 1893 f13e b192 753f
000002b0: 5dc4 5a3f 0531 713f bbd5 5fbf b71a 36bf
000002c0: a273 583f a294 bcbe 3d1e 17be 9425 013f
000002d0: 544f 93bd bf3e 97be 2267 ae3d 9400 12bf
000002e0: 7ea9 bb3e 2c31 e33d 226c 7f3e 5c63 e0bc
000002f0: 51ce 053f ccab 813e d808 1bc0 7fd5 74bf
00000300: ba60 b3be b44b ed3d 896a e3be 9e0e 93bf
00000310: 09f8 103f 5364 16bf 5bcd c03e e236 563e
00000320: e6ea 1a3f b593 b83f c4d9 90bf 9852 20bf
00000330: 0cdd 81be 6925 c6bf 95a2 c6bf d6a5 2bbf
00000340: 461d 663f 6875 163f f976 eb3f 9550 97bf
00000350: 0611 0c3f 7d34 203f b0b2 463f d0e2 c3be
00000360: 6464 bdbf 9809 0b3e d0fa 453f caed 093f
00000370: 6f74 123f 5050 acbf a928 40be f8a5 5cbf
00000380: 6958 6c3f 4f1a d23e 38ff febe 11c0 7a3f
00000390: c34f 793f 22d2 203f fa8d 973e 880e f3be
000003a0: a220 073f 3887 f63e 24a2 933f a6bf 9c3d
000003b0: c373 6fbf 7f02 a8bd 42f2 7f3e 18f9 593f
000003c0: f464 3ebf 676e 94bf 454b 823f 8f85 ff3e
000003d0: 87e5 cabe 432a 12be 2801 70be 9e9f 2f3f
000003e0: 6b11 eebe 63da f2be 71dd 983f d3cf aebe
000003f0: 0186 5e3f 5b1c 9c3f 12bb a4be a2c2 703f
-0.62384886 -1.1276294 -0.76360655 -0.82953763 0.9803331 0.8915801 1.4366536 0.403201
-0.46018168 -0.508384 -1.2823583 -0.60579693 0.7702872 0.09788306 0.46089494 -0.17533973
0.744182 -1.6131066 -0.73688436 0.37634495 -0.8984397 -0.6958625 -1.2020708 0.7051768
0.8625822 0.86127955 0.5962297 -0.45363075 0.39866605 0.14768426 0.9662138 -0.1471882
0.7670184 -0.68100226 -0.2638352 0.9080693 -0.920686 0.25882 -1.0361366 -1.3321508
0.5286583 0.7045473 -0.9827695 1.3299999 0.72393674 -0.15793091 1.0305883 -0.123144366
1.8096313 -1.4862232 0.7447012 0.8505549 1.0437112 -0.32254592 0.86130625 0.7605999
0.16864452 -0.8540098 -1.2156568 -0.40455908 -0.8099425 0.7630161 -0.7962659 -0.5458912
0.32281274 -0.5437262 0.89988196 -0.814579 -0.26704803 -1.3841686 0.35175145 0.007612916
-0.9851884 -0.7609473 0.77453345 0.5176166 0.19054586 -0.90993494 -0.30484387 -0.6539242
0.13784364 0.28378 -0.6172077 -0.601793 -0.4552126 0.81335896 -0.93147665 -0.48608512
0.5932935 -0.6724676 -0.76529986 1.229016 -0.41831508 0.8416821 -0.9439798 -0.44486484
0.7158245 1.0624111 0.82259417 0.14204057 0.28214777 0.22710107 0.8915716 0.7093446
0.6389046 -0.29516968 0.3642941 0.13047807 -0.88034225 0.93186355 -0.73633444 0.38808268
-0.89962614 -0.6790497 -0.853634 0.7335707 0.20558086 0.63438237 -0.46562994 -0.61150455
0.42759794 0.23020585 1.0128356 -0.6913391 -1.2437224 -1.282906 0.049409915 1.4070959
-0.86583495 -0.22937934 -0.8570224 0.86472744 -1.5951753 -0.38060367 0.44412425 -0.95520824
0.98821956 -0.49998403 0.364589 1.7759153 0.8858898 0.7956207 0.22157459 0.58074486
0.9095789 -1.1688185 1.3457245 0.9097438 0.37815937 0.76511496 1.3392589 0.66339105
0.39440542 1.0317355 -0.5656122 -1.4112095 -0.7186452 0.8231398 -0.40316263 0.29402462
0.5635243 -0.16114126 0.7012695 -0.9751851 -0.5679487 0.9414917 -0.6779694 -1.3814992
0.18322384 -0.07625325 0.47182536 0.9592696 0.85455877 0.9421542 -0.874355 -0.71134514
0.8455144 -0.36832148 -0.14757629 0.50447965 -0.07192865 -0.2954006 0.08515765 -0.5703213
0.3665275 0.11093363 0.24943593 -0.027391128 0.5226794 0.25326383 -2.4224148 -0.9563827
-0.35034734 0.11586705 -0.44417217 -1.1488836 0.5662847 -0.5874683 0.37656674 0.20919374
0.60514677 1.4420077 -1.1316457 -0.6262603 -0.25363958 -1.5480167 -1.5518366 -0.6704992
0.8988842 0.587729 1.8395683 -1.1821467 0.54713476 0.6258009 0.77616405 -0.38258982
-1.4796262 0.13577878 0.77335835 0.5387846 0.57208914 -1.346201 -0.1876551 -0.8619075
0.92322403 0.41035697 -0.4980409 0.9794932 0.9738733 0.6282064 0.29600507 -0.47472024
0.5278417 0.4815004 1.1533856 0.076537415 -0.93536013 -0.08203601 0.24994758 0.8514571
-0.7437279 -1.1596192 1.017922 0.49906585 -0.3962824 -0.14273934 -0.23437941 0.6860293
-0.46497664 -0.4743224 1.1942579 -0.34142932 0.86923224 1.2196153 -0.32173973 0.94046986

1.running_var f4 [256]
00000000: cc75 c53d c33d be3e 2ab7 ef3e a100 313f
00000010: 5c5e 9b3e 3fcb fc3e 4071 3f3f ce24 833d
00000020: 40de 0f40 4181 4640 bf3f 0640 1a7b 603e
00000030: df2d 823e af5c 6440 50b0 113f 8332 3a3d
00000040: 3526 e53e 3d4b f13f ef9b 8c3f b0bd 933f
00000050: 0a5a 5e3e 4215 563e 986b 8a3f 6511 923e
00000060: 42e5 483e 333e 913e 2dea cd3f 4c93 b13f
00000070: d9f9 8b3e 2847 613e cbd4 ad3e a4ea 563f
00000080: 8920 1d3e 4081 3f40 2213 3e3f f581 a53e
00000090: 5fd1 103f 605d a23f c315 003f bab2 0040
000000a0: 1ca5 813f 3da7 0e3e 92a3 5c3f f094 2a3f
000000b0: 7535 833e 4c27 0940 37ba 7b3f c98e 313f
000000c0: 3a9b 1040 fe8b 9a3f d526 1f3e 0aa6 1d3e
000000d0: a8ef 3f3f 87a5 883d 72bf 7f3e 8511 8b3f
000000e0: 603a b73e 6a2e 143f 5918 0e3f 80b9 483d
000000f0: b438 583e 3567 563f 5343 da3e 2772 083f
00000100: 7add 1c3f 5bac 3c3e 59ef 393e f2d8 873e
00000110: b0d6 c13f 34f5 6040 46b1 963f f7cb 3f3f
00000120: aca4 883f 1fca 8e3f 7071 c43f 4d36 983d
00000130: a5a6 733f 4046 993f ab7f 643e 1074 543e
00000140: eeaf 923f c375 0f3d f7c7 a73e 9f80 2940
00000150: bc78 5f3f e59f fa3f 89dc bc3f 2c92 a43d
00000160: 9e0b 6b3e 596a 803f 705f 823e 8808 e03e
00000170: f7cb 2b40 0c47 093f 920e 803f 8968 593f
00000180: 02d6 ad3f 3789 3740 5073 443e fbce b33f
00000190: ec3c ad3e cf65 083f 01f3 e93f 5b3d 1d3e
000001a0: 3aac 9b3f 3119 923d 7e9a b13f 8058 973e
000001b0: 9adc 943e fca0 6c3f cf84 ae3e 7d29 143e
000001c0: e90c c43f 1ce4 b740 1a05 983e 3382 cd3e
000001d0: 86d9 2540 6be3 443e 2386 883f e554 a83e
000001e0: 0805 963e 5cdc 1a3e 22b2 c13e cda4 8340
000001f0: 1245 c03f 9f8c ac3f 015d 3b3f cba9 1640
00000200: 5ae7 1f3f b14d b73f 30b1 2b3f 5530 8b3e
00000210: 164b c03f a66e ce3d 638f 0d3f 5352 3d3f
00000220: 8f27 703f 496e d43f 83a1 7e3e 8fb1 2640
00000230: 90f0 8a3e a691 5f3f 564b a23f 366a cc3e
00000240: 3bde 303f be43 c53f 44ca fa3f 96fd c93f
00000250: d76c 883e d6e2 5e3e 71e5 033f e4cb 083e
00000260: ee16 363e aff4 da3e e8fb 603e b875 4b3f
00000270: ce42 bf40 2254 6f3f 1f52 8240 a102 243d
00000280: 66bd 283f a49f 3b3f 0db5 3f3e 5cc2 583f
00000290: 3fcd da3d f607 6e3e d8c0 9b3e 9ce9 0d3f
000002a0: db19 6a40 b50f 553f c25e 743e 486a b33f
000002b0: 1e13 d63f a6ad bd3e 4f0f 9d3f fc37 0f3e
000002c0: 2257 873e 8de8 4b3f a9bd b13f 2ba7 733f
000002d0: 7544 083f 019b 0040 3c57 8e3f 1bbd bc3f
000002e0: 346e 963e 0d6b cb3e 1941 583f dfca f73f
000002f0: f32d 5d3f 0ab6 8540 151e a040 09b7 9a3e
00000300: 4190 a63d 3fe9 3840 e9bb 6d3e 6c16 883f
00000310: 981e 373f c1ea cc3d 9a74 423f ac54 e33e
00000320: 4538 bf3d 5069 9a3f 1ae9 d63f 2290 933e
00000330: af99 1640 b06b c23f 8843 4340 4969 203f
00000340: 6201 263f a64a 2f3e ddc1 0340 e0f4 643f
00000350: 30b4 8d3d 8c43 2e3e f31e da3f c722 843f
00000360: 4b2d 1540 0858 913f d110 fd3e c6c2 093e
00000370: 1e14 2c40 4e3d 583f d789 c63f ebab 543e
00000380: aa3e 573f 50e3 c33f 4af0 043f 8aff 4b3f
00000390: 209d 073f f957 573e 56c6 3c3f 2878 083e
000003a0: 6138 f53d cebf 5140 848d 813f 6461 9c3e
000003b0: 4782 953f f701 a73f a272 a93d e5d2 9e3f
000003c0: 271f 5a40 cf32 6f3f c349 863e 2a05 163e
000003d0: b17c a83e fa01 e83d 284a 2a3f d636 093f
000003e0: 274d 2e3e 2c79 ec3d 26eb 103f b3a4 813e
000003f0: 4a74 823e 863a 5f3f bd6e 6b40 6a54 203f
0.096416086 0.37156495 0.4681943 0.69141585 0.30345428 0.49373814 0.7478218 0.06403504
2.24794 3.101639 2.0976408 0.2192196 0.25425622 3.568157 0.56909657 0.045458328
0.44755712 1.8851086 1.0985087 1.1542263 0.21714035 0.20906547 1.0814085 0.28528896
0.19618705 0.28367767 1.608709 1.3873076 0.27339056 0.219998 0.3395141 0.83951783
0.15344442 2.9922638 0.74247944 0.32325712 0.56569475 1.2684746 0.50033206 2.0109086
1.0128512 0.13930984 0.8618709 0.6663351 0.25626722 2.1430235 0.98331016 0.693585
2.2594743 1.2073972 0.15542157 0.1539537 0.7497506 0.06672197 0.24975374 1.0864722
0.35786724 0.5788332 0.555059 0.04900503 0.2111538 0.8375123 0.4262949 0.5329918
0.61275446 0.18425123 0.1815771 0.26532704 1.5143642 3.514966 1.177285 0.749206
1.0675254 1.1155432 1.5347118 0.07432232 0.95176154 1.1974564 0.22314326 0.207474
1.145994 0.035024416 0.3276975 2.6484754 0.872936 1.9580046 1.4754802 0.080356926
0.2295365 1.0032455 0.25463438 0.4375651 2.684324 0.53624034 1.0004447 0.84925133
1.3580935 2.86775 0.19184613 1.404754 0.33835542 0.5328035 1.8277284 0.15355437
1.2161934 0.07133711 1.3875272 0.29559708 0.29074556 0.9243314 0.340857 0.14468952
1.531644 5.7465954 0.29691392 0.40138397 2.5914016 0.19227378 1.0665935 0.3287727
0.29300714 0.15123123 0.37831217 4.1138673 1.5021079 1.3480414 0.7318879 2.3541133
0.6246239 1.4320585 0.6706724 0.27185312 1.5022914 0.10079698 0.55296916 0.7395374
0.9381036 1.6596156 0.248663 2.6045873 0.2713666 0.87331617 1.2679241 0.39924783
0.69089097 1.5411298 1.9592977 1.5780513 0.26645538 0.21766219 0.51521975 0.13359028
0.17782184 0.42764804 0.21971095 0.794765 5.976905 0.9348775 4.0725245 0.04004157
0.65914 0.7329047 0.18721409 0.8467157 0.10683679 0.23245224 0.30420566 0.55434585
3.657828 0.8322709 0.23864272 1.401681 1.6724584 0.37046546 1.2270297 0.139862
0.26433665 0.7965172 1.3886005 0.95176953 0.5322946 2.0094607 1.1120372 1.474521
0.29380953 0.3973011 0.8447433 1.9358786 0.8639824 4.1784716 5.003672 0.3021777
0.08132983 2.8892362 0.23216213 1.0631843 0.7153106 0.10005713 0.7595917 0.44400537
0.093369044 1.2063389 1.6789887 0.28820902 2.35313 1.5189114 3.0509968 0.6266065
0.6484586 0.1711832 2.0587075 0.8943615 0.06919134 0.17017955 1.7040695 1.0323113
2.3308895 1.135499 0.49426892 0.13453206 2.6887279 0.84468544 1.5510815 0.20768707
0.8407999 1.5303745 0.5192915 0.79686797 0.5297413 0.21029653 0.73740137 0.13327086
0.11973644 3.2773318 1.0121312 0.30543053 1.1680382 1.3047475 0.082738176 1.240811
3.4081514 0.934369 0.2622815 0.14650407 0.32907632 0.11328502 0.66519403 0.535993
0.17021619 0.11546549 0.5660881 0.25320968 0.25479347 0.87198675 3.678634 0.62628806

4.weight f4 [128, 256]
00000000: 2d5b 58bd ef94 d43c feb6 4fbd 432c 6f3d
00000010: a15c 2cbd 4263 413d 71c4 d1bc d84d 683d
00000020: 8a01 bdbc c27c 7bbd 36e1 633d 82f9 813c
00000030: d7b5 553d bd9e 1e3d 7d6b 7fbd de6a 043c
00000040: abfd 693d 4c61 22bb 9938 423c c588 4c3d
00000050: dbb3 33bd c263 18bd 9179 f83b 9b60 fabc
00000060: 24bb 0a3d 5208 ac3c 9854 7b3d c07d 27bc
00000070: 00a2 183d 48d8 a43c 5e18 d33b 10a8 37bd
00000080: 3284 32bc 6e2b 19bd 0b61 6ebd 57d5 02bc
00000090: c5f6 b339 500d 19bd 64c9 2a3d 2cf0 183d
000000a0: dd39 533d 1811 033d a7c8 373d abf9 b3bc
000000b0: bece 843d ff65 2bbd b382 3a3d e03b 463d
000000c0: 229f 39bd 3a3d 913c 9e52 5bbc d08c 113d
000000d0: 55b2 69bb c8ac 803d 711e 2d3c a749 5dbd
000000e0: bd41 183d 55c1 d93c 32fc 52bd 4a47 0d3d
000000f0: baf6 c6bc 24f2 6ebc ea5a 4dbc baf6 1c3d
00000100: cada 67bd f0c7 483d 1d30 a53c ed1c 15bd
00000110: acfb 3b3c 1520 f9bc 4ac0 33bb 971b 2fbd
00000120: deb7 55bd abb8 e3bc ada1 0fbc 955f 393d
00000130: 296e 8c3c ed14 123d d7a5 8fbc 8208 873d
00000140: af82 673d 7969 533d a52b 00bd 0888 b73c
00000150: c88e 8cbc e100 1d3d 5bba 05bc 0c8b 413d
00000160: 7281 9dbc 8691 803d a1d6 853d e222 483d
00000170: 733c 23bd babe 7a3c 00f4 2abd ab13 2fbd
00000180: 22e5 7d3d be72 e5bb 66ae b43b a6d2 1a3d
00000190: b047 673d 4d5c 38bd 521e 55b9 ddc7 343c
000001a0: 2281 5abd a9ed 493d e947 833d e0d6 36bd
000001b0: c86e 24bc d05f 02bc 3627 073d 2fdc 4f3d
000001c0: 8639 413c ccc2 fabb 3012 b83c fdce eebc
000001d0: df4f c0bc 0599 233c 88f1 a23b 2b3e 773d
000001e0: 009e debb 4faa a3bc 9c93 59bd f2f5 443d
000001f0: bfe0 6cbd 895c 51bd 13f8 123d 4d41 8fbc
00000200: 0232 343d 6712 2e3d 727d 253d a570 0abd
00000210: 319b 08bd 17ea a13c 62cb 49bd 6b3a 3ebd
00000220: f067 32bd ad06 17bd e814 2dbd 09cf 3d3d
00000230: 79b0 44bd 26b9 01bd 49d5 2ebd d5d5 f7bc
00000240: 31c4 0cbd 1074 503b 7c6a 803c 6527 003d
00000250: 7d2b 1b3d 0a3c 6abd cee5 ebbc cabc 6abd
00000260: d949 e5bc 3f53 c3bc 91be 763d 0ca3 6e3c
00000270: 53a4 623d bee6 fcbb e869 13bc fd62 b739
00000280: 3d4a 16bd 7361 b6ba fcb3 49bd 2796 013d
00000290: 5817 c03c 9b65 01bd 224f 0c3d a2cc 21bd
000002a0: 2f5b b93c 4db9 0dbd 87b5 683c 6081 293d
000002b0: def5 28b9 9289 563d 1739 8c3c 1a67 3a3d
000002c0: f6ad 0c3d c83c 9bbc 1fa3 de3c c9d4 663d
000002d0: ca42 d43c 0590 23bd fe02 423d da86 7dbc
000002e0: 2fed 84bd f9c1 b93c c2c1 4ebd 2136 9d3c
000002f0: e3e0 38bd e144 213b 36d5 8bbb e0bf b9bc
00000300: 50cf d03c e1c6 a7bc 80e3 503d db75 d53c
00000310: 7ade 00bd 55b7 03bc 4f87 2dbd 0478 c63c
00000320: dd7a 003d b765 be3c 43d4 f83b 99a4 bebc
00000330: 0750 4f3d 0b9e 963b 11c9 03bd 14fb 65bc
00000340: 74bd 5b3d c166 b73c 14f2 07bd eaab 1e3c
00000350: f02a 93bb 9846 0d3d 7632 82ba e64e 803d
00000360: 4992 3ebd 9dc5 11bd 0b86 c43b 5355 e43b
00000370: 3e83 c0bc 80ee 413c e3c4 32bd c4a8 a43b
00000380: 94ae 123b 0ab9 e83c 1de5 ab3c 6a71 823c
00000390: d7cf 27bd 187a ee3c 972f 6bbd b06e 50bc
000003a0: 256c 4cbd a38a 613d d6ac 1bbc d0e3 8b3c
000003b0: 3caa 6d3d 8ea4 133d 872f 543d 96d4 e53b
000003c0: 4c06 1f3d d299 713d 1070 8c3c ecfd 683d
000003d0: 7a0c 15bd 23f3 fe3c 2754 aebc 7a21 4d3d
000003e0: 2eb9 043d a9d6 30bd 172d 6e3d cdee 57bd
000003f0: 2a02 bb3c b4a9 22bd 5750 2cbd 529e 153d
-0.052821327 0.025949923 -0.050711624 0.05839182 -0.042080525 0.0472138 -0.025606366 0.056714863
-0.023072023 -0.061398275 0.0556347 0.015866045 0.05217537 0.038725603 -0.06235837 0.00808212
0.057126682 -0.0024777232 0.011854314 0.04993512 -0.043872695 -0.03720451 0.007582851 -0.030563643
0.033869877 0.021000061 0.06135997 -0.010222852 0.03726387 0.020122662 0.006442114 -0.04483801
-0.010895776 -0.037394933 -0.058198016 -0.0079854345 0.00034325398 -0.03736621 0.041695967 0.03733842
0.051568855 0.031998724 0.04486909 -0.021969637 0.064847454 -0.041845318 0.0455348 0.048396945
-0.045317777 0.01772939 -0.013386397 0.03553468 -0.0035659273 0.062829554 0.01056634 -0.05402532
0.037172068 0.026581446 -0.051510043 0.034491815 -0.02428757 -0.014584098 -0.012533883 0.038321234
-0.056605138 0.0490188 0.020164544 -0.03640454 0.0114735775 -0.030410806 -0.0027427846 -0.04275092
-0.052177303 -0.027798017 -0.008766574 0.04525717 0.017142372 0.035664488 -0.017535133 0.065934196
0.056521114 0.05161426 -0.031291623 0.022403732 -0.017157927 0.038330916 -0.008162106 0.047251746
-0.019226763 0.062777564 0.06535078 0.04886139 -0.03985257 0.015304262 -0.041736603 -0.042743366
0.061986096 -0.0070022037 0.005513954 0.037798546 0.05646485 -0.0450099 -0.00020324558 0.011033979
-0.053345807 0.049298916 0.064102 -0.044638515 -0.010036178 -0.007957414 0.03299638 0.050747093
0.0117935 -0.007652616 0.02246961 -0.029151434 -0.023475586 0.009985213 0.0049726404 0.060362022
-0.0067937374 -0.01997867 -0.053119287 0.048086114 -0.057831522 -0.05111364 0.035881113 -0.017487193
0.043993004 0.04249802 0.040402837 -0.033798832 -0.033351127 0.019764943 -0.049266227 -0.04644243
-0.043556154 -0.0368716 -0.042256266 0.046340022 -0.04801986 -0.031670712 -0.042683873 -0.03025333
-0.03436679 0.003180746 0.015675776 0.03128757 0.03788327 -0.057186164 -0.028796103 -0.05730895
-0.027989315 -0.023843406 0.060240332 0.014565241 0.055332493 -0.0077179363 -0.008997418 0.00034978232
-0.036691893 -0.001391454 -0.049243912 0.031637337 0.023448631 -0.03159104 0.034255154 -0.039501794
0.022626488 -0.034600545 0.014203436 0.041383147 -0.00016113321 0.05237729 0.017117066 0.04550848
0.03434559 -0.018949881 0.027177392 0.05635527 0.025910754 -0.03993227 0.047366135 -0.015474046
-0.06490552 0.022675501 -0.05047775 0.01919085 -0.045136344 0.0024607705 -0.00426736 -0.022674501
0.02548948 -0.020480575 0.05099821 0.026057174 -0.03146217 -0.008039315 -0.04236537 0.02422715
0.03136717 0.02324186 0.007593663 -0.023271846 0.05061343 0.004596477 -0.032174174 -0.0140369125
0.053647473 0.022387864 -0.033189848 0.009684542 -0.0044912025 0.03449115 -0.0009933251 0.06265049
-0.046526227 -0.03558885 0.0059974245 0.0069681793 -0.023500081 0.011836648 -0.043644797 0.0050250012
0.0022381889 0.028408546 0.020983273 0.01592322 -0.040969696 0.029110953 -0.057418432 -0.012721702
-0.049907822 0.055063855 -0.0095016565 0.017076403 0.058023676 0.036045603 0.051803138 0.0070138676
0.038824365 0.058984585 0.01714328 0.056882784 -0.03638885 0.031121796 -0.021280361 0.050080754
0.032403164 -0.043173466 0.05814847 -0.052717973 0.02282818 -0.039712623 -0.042068806 0.03652794

4.bias f4 [128]
00000000: e914 813b 76b2 a53a 9e0a 113a 6963 bf3a
00000010: adba 053c 46d1 31bb e621 853c d171 cebc
00000020: ac38 8539 5979 a83c ae43 8836 0193 b5bc
00000030: 9234 fd3c 6c1b faba b28e 913b 2bb9 11bd
00000040: af0c 23b6 f32f 133d d8aa 00b7 4f5d f435
00000050: 4e7b c236 10be bb3a 0f32 a93c 1c3b fa3b
00000060: da64 113d ce4c 873c ecc9 f5bc cc41 61bc
00000070: de93 713a 597c 013d 0e52 3e36 7f85 44b6
00000080: 2cad 58bc dbde 12bd 7228 c0ba 4eb7 86bc
00000090: 64da f7bc 760e e63c 6bc9 8136 32ad 993b
000000a0: 6338 10bd fc04 8fbb 82bb 9a3c 97c6 ec3c
000000b0: e4d6 003d 8eb3 d035 92e1 46b9 1b3f bf3c
000000c0: 28be 38bb a89b 09bc ef5d 683c 9ab0 1f3c
000000d0: 5520 68b8 9e35 a23b 7ede 49bc 1b16 8ebb
000000e0: d381 563c acb9 7636 170d bdbc 2c8e a13c
000000f0: a6f6 cc39 4104 b0ba c04c 4fbb 7e1b 5dba
00000100: e69c 1abc 0d0c 84b6 6549 d4bc 0665 eab5
00000110: a21b ae3c c91b 20bc 2cc8 de3a 39a7 48bb
00000120: c3b9 f63c f7c6 85b8 9639 89bc db4b 09bd
00000130: a74b 89bc ca22 0b37 010d ddbb 8aac 2bba
00000140: ae5a ad3b e6fd aab9 ec4d 63bc 0e64 db3c
00000150: 1715 d2b9 983e e436 5ceb 183a c43c ba3b
00000160: 9b88 8235 2e3a 243c c53d bebc 6893 b336
00000170: 9112 3eb6 0ba7 51bc 1137 93b6 abf5 b7bb
00000180: c899 1e3c 753f 2937 e80e a4b4 1e9e eabc
00000190: 7e3d 7b3c 65e5 cfbc b46e 3a3a 1ae3 b53c
000001a0: 90f5 463a dd82 dfb6 036c 073d 7896 083b
000001b0: 5196 233c 5330 f8bc 4c76 1db8 3b6f b7bb
000001c0: 4780 21bc eff3 163b 1b63 df3b 6338 0fbd
000001d0: 62d2 e8bc 420f 4e37 80d7 4dbc f100 2abc
000001e0: 98e7 d239 7ea6 d13c c3d1 7236 6fb8 cfbc
000001f0: af7b 14bd a654 09b7 9388 6f3c cb2c a1bc
0.0039392603 0.0012641686 0.0005532893 0.001460177 0.008162183 -0.0027132793 0.016251516 -0.025200756
0.0002540996 0.020565676 4.060995e-06 -0.022164823 0.030908857 -0.0019081659 0.0044420594 -0.03557698
-2.4296276e-06 0.0359344 -7.669172e-06 1.8206573e-06 5.796005e-06 0.0014323611 0.020653753 0.007636441
0.03549657 0.016516116 -0.03000351 -0.013748597 0.00092154543 0.031612728 2.8359968e-06 -2.928398e-06
-0.013224881 -0.035857063 -0.0014660491 -0.016444828 -0.030255504 0.028083067 3.8679477e-06 0.004689836
-0.035210025 -0.004364608 0.018888239 0.028903289 0.031454936 1.5549465e-06 -0.00018966783 0.02334552
-0.0028189514 -0.008398928 0.014182552 0.009746695 -5.5343222e-05 0.0049502393 -0.012321113 -0.0043361313
0.013092476 3.6764932e-06 -0.02307753 0.019721113 0.0003909368 -0.0013429002 -0.003163144 -0.00084345776
-0.009436822 -3.9353095e-06 -0.025913903 -1.746376e-06 0.02125341 -0.0097722495 0.0016996912 -0.003061725
0.030117875 -6.378994e-05 -0.016751092 -0.033519607 -0.016759707 8.293146e-06 -0.006745935 -0.00065488426
0.005290351 -0.00032614096 -0.0138735585 0.026781108 -0.00040070034 6.8022164e-06 0.0005833411 0.0056835134
9.725512e-07 0.010023637 -0.023222813 5.351776e-06 -2.8323013e-06 -0.012796174 -4.387352e-06 -0.0056140027
0.009680219 1.008796e-05 -3.0558226e-07 -0.02863985 0.015334485 -0.025377939 0.0007111833 0.022203017
0.0007589692 -6.6611524e-06 0.033061992 0.002084164 0.009984569 -0.03029648 -3.754189e-05 -0.0055979765
-0.009857244 0.002303358 0.006817234 -0.034965884 -0.02842063 1.2282109e-05 -0.012563586 -0.010376201
0.00040226872 0.025592085 3.6182907e-06 -0.0253565 -0.036250766 -8.185545e-06 0.014619964 -0.01967468

5.weight f4 [128]
00000000: f9b8 7f3f 66d5 7f3f b738 7d3f 84cd 7f3f
00000010: ebeb 7b3f a795 813f 5893 803f dac4 813f
00000020: 076b 7d3f 4f18 803f 7fc0 803f 3935 813f
00000030: db13 7d3f d7a4 7f3f 2c9e 7d3f d582 7c3f
00000040: 54ee 7e3f 47d1 813f c524 7f3f be19 7c3f
00000050: 28ad 803f b6bb 7b3f 5a8e 803f 0b21 813f
00000060: 557b 813f 375e 803f 47a4 813f 7cc4 7b3f
00000070: e980 823f 2f81 803f 6919 803f bc13 7d3f
00000080: f7b7 803f 1557 7f3f 4ac9 7f3f ffc4 7d3f
00000090: 9028 7d3f 920d 823f 5c98 7f3f 8cd7 7e3f
000000a0: 28b0 803f 8692 813f 2c75 803f 8325 7f3f
000000b0: af2c 7d3f 119d 803f 3d11 813f 20a5 7d3f
000000c0: 4930 823f fc0f 7b3f a405 813f 1c07 7f3f
000000d0: 543b 823f d400 823f 8f07 803f 234f 803f
000000e0: 653f 803f fa3b 7c3f 9a9a 7e3f 1879 7f3f
000000f0: aad7 803f 0f0c 7e3f a390 823f d775 7d3f
00000100: bbf9 803f 5559 803f fa8b 7f3f 2dd5 7b3f
00000110: c65a 823f 17b7 7f3f 5972 813f 9ee5 7f3f
00000120: 96c3 7c3f 3cf6 7e3f f35b 823f 5eee 7e3f
00000130: 21b8 823f 7527 7d3f 341a 803f 9daf 7f3f
00000140: d4e7 813f b00c 803f 5dea 7e3f 2dcf 7f3f
00000150: 1943 803f 80ef 803f 31a7 7f3f a9ab 7f3f
00000160: 5559 813f 8e14 7d3f 0d0a 813f 2906 7f3f
00000170: 87e9 7e3f 9a96 7f3f 2634 7d3f 29ae 7b3f
00000180: 47a6 7d3f 2b31 803f 9110 7f3f 31f4 7f3f
00000190: 29f3 803f 4117 813f 16a1 7c3f 6e98 7f3f
000001a0: e40e 823f b6b8 7d3f 787b 7c3f fef6 7e3f
000001b0: 4cdf 7c3f ab2b 813f 4eac 7e3f 8324 7c3f
000001c0: daa2 803f 011f 7e3f 920f 813f 9949 7d3f
000001d0: de31 803f a5f9 803f e60a 823f c0f7 803f
000001e0: fccd 7d3f 70db 7c3f 2b6d 803f d94d 803f
000001f0: 19a7 7d3f bc91 803f 81e7 7d3f 1228 7d3f
0.9989162 0.99934995 0.98914665 0.99922967 0.9840686 1.0123795 1.0044966 1.0138199
0.98991436 1.0007418 1.0058745 1.0094367 0.9885842 0.998609 0.99069476 0.98637134
0.9958241 1.0141991 0.9966548 0.9847678 1.0052843 0.983333 1.0043442 1.0088209
1.0115763 1.0028752 1.0128258 0.98346686 1.019559 1.0039424 1.0007755 0.9885824
1.0056142 0.9974225 0.9991652 0.9912872 0.9889002 1.0160391 0.99841857 0.9954765
1.0053759 1.012284 1.0035758 0.99666613 0.98896307 1.0047933 1.0083386 0.99080086
1.0170985 0.98071265 1.0079846 0.99620223 1.0174356 1.0156503 1.0002307 1.0024151
1.0019346 0.98529017 0.99454653 0.9979415 1.0065815 0.9923715 1.020039 0.99007934
1.0076212 1.0027262 0.9982296 0.98372155 1.0183952 0.9988875 1.0113021 0.99959743
0.9873594 0.99594474 1.0184311 0.9958247 1.0212442 0.9888833 1.0007997 0.9987734
1.0148873 1.0003872 0.9957636 0.999255 1.0020477 1.007309 0.9986449 0.9987131
1.0105387 0.9885949 1.0081192 0.99618775 0.99575084 0.99839175 0.989077 0.9831262
0.99081844 1.0015005 0.99634653 0.9998198 1.0074207 1.0085222 0.986833 0.99841964
1.0160794 0.9910997 0.986259 0.9959563 0.98778224 1.0091451 0.99481666 0.9849321
1.0049698 0.9926606 1.0082877 0.98940426 1.0015218 1.0076185 1.0159576 1.0075607
0.9914243 0.98772335 1.0033315 1.0023757 0.99083096 1.0044475 0.9918137 0.9888927
