models/sed_model_Kurucz2003all/model.pt (torch, 747684 bytes, 20 tensors)

0.weight f4 [256, 403]
0	0x3a5d014c	0.0008430674
1	0x3d183d0a	0.037167586
2	0x3a3e1cb0	0.00072521996
3	0x398340d7	0.00025034577
4	0x3d0e80a3	0.034790646
5	0x3b73250d	0.0037100941
6	0xbd2e7b5b	-0.04259811
7	0xbcf6f2ea	-0.030145127
8	0xbba6e2ac	-0.0050929394
9	0x3d46c6b2	0.048529334
10	0xbcb8c9dc	-0.022557192
11	0x3cc779b3	0.024350023
12	0xbc87c5b7	-0.01657377
13	0x3c69ed8a	0.014277825
14	0x3d37d65a	0.044882156
15	0x3d3f0c66	0.046642683
16	0xbd2cfb57	-0.042231884
17	0xbcf16c65	-0.029470632
18	0x3cf40db8	0.029791698
19	0xbc10e5dd	-0.008843866
20	0xbcc94e4f	-0.024573473
21	0x3d243535	0.040089805
22	0xbca3aace	-0.019978907
23	0x3d0d18c1	0.034447435
24	0xbd459201	-0.048234943
25	0xbc3fa1b1	-0.011696265
26	0x3ba7f78c	0.0051259454
27	0x3cc360b2	0.023849819
28	0xbbb7c90b	-0.005608683
29	0xbc67e56e	-0.014153821
30	0xbd1485d5	-0.036260445
31	0x3d375b29	0.04476467
32	0x3cfea832	0.031086061
33	0xbcd3aa80	-0.025838137
34	0xbc5d0d85	-0.013491993
35	0xbbe35c33	-0.0069384812
36	0x3d27ff59	0.041015003
37	0xbc88225a	-0.016617943
38	0x3d2803e7	0.041019347
39	0xbd1242d7	-0.035708275
40	0xbd0933dc	-0.033496723
41	0x3b32a19b	0.002725697
42	0x3ccef5fb	0.025263777
43	0x3c6ec8f6	0.01457428
44	0xbd0cbca1	-0.034359578
45	0x3d0806fe	0.033209793
46	0xbc843c19	-0.016141938
47	0xbd25fd7c	-0.040524945
48	0x3d5529c9	0.052041803
49	0x3c6170d0	0.013759807
50	0x3c116f14	0.008876581
51	0x3d259f03	0.04043485
52	0x3bb8c6c3	0.0056389286
53	0x3bcb56c2	0.0062054107
54	0x3c75cbe6	0.015002226
55	0x3bf3fa2f	0.0074455957
56	0xbc92e3a2	-0.01793081
57	0x3d5c2eac	0.053755447
58	0x3d183d65	0.037167925
59	0x3c6118b3	0.013738799
60	0x3c692b53	0.014231521
61	0xbd163db0	-0.036679924
62	0x3c69b53f	0.014264404
63	0x3b99e608	0.0046966113
64	0x3d413a63	0.047174823
65	0x3d19edda	0.03758035
66	0xbca5450b	-0.020174524
67	0x3cf5f2ea	0.030023057
68	0x3c674478	0.014115445
69	0x3ce83ff6	0.028350811
70	0xbcb9c73f	-0.022678016
71	0xbb28a056	-0.0025730333
72	0x3cb8fc69	0.022581296
73	0xbcfd9017	-0.030952496
74	0x3ca3fc75	0.020017842
75	0xbd02da0c	-0.031946227
76	0xba9ae5a0	-0.0011817701
77	0x3c3eb81c	0.011640575
78	0x3d03b90c	0.032158896
79	0x3cab998d	0.020947242
80	0x3ccf80d6	0.025329988
81	0x3d33ab38	0.04386446
82	0xbccb5ae6	-0.024823617
83	0xbd4c5098	-0.049881548
84	0xbce48473	-0.027895188
85	0x3d050138	0.032471865
86	0x3d0eb30b	0.034838717
87	0x3c3e1655	0.011602004
88	0x3aa59c0b	0.0012635005
89	0x3d33019f	0.043702718
90	0xbd472a82	-0.048624523
91	0x39323ed0	0.00016998802
92	0x3c0f2c55	0.008738597
93	0xbc691ed2	-0.01422854
94	0x3b79f0cd	0.0038137913
95	0xbc637068	-0.01388178
96	0x3bd46859	0.006482166
97	0x3b3fa6fe	0.0029243822
98	0xbc9ed465	-0.019388387
99	0xbd19a8e6	-0.03751459
100	0xbd143432	-0.03618259
101	0x3cabbc3c	0.02096378
102	0xbd251467	-0.04030266
103	0xb9de252c	-0.00042370835
104	0xbce17ce8	-0.02752538
105	0xbd52d7fa	-0.051475503
106	0xbc1299e0	-0.0089478195
107	0xbce78753	-0.02826277
108	0xbaf602e9	-0.0018769178
109	0xbd0b6e04	-0.034040466
110	0xbc6ed6bd	-0.014577565
111	0xbd041cd7	-0.032254066
112	0x3d240b83	0.04005004
113	0x3d29b913	0.041436266
114	0x3c882138	0.016617402
115	0x3c4609e5	0.01208732
116	0x3b6924f6	0.003557501
117	0x3ccea116	0.025223296
118	0x3c29c1d3	0.010361153
119	0x3d19fad6	0.03759273
120	0x3d152b89	0.03641847
121	0xbd490e21	-0.04908574
122	0x3d389b6b	0.045070093
123	0x3cefdb1d	0.029279286
124	0xbbc10398	-0.005890321
125	0xbc579fdb	-0.013160671
126	0x3c94a392	0.018144403
127	0x3cd67ecd	0.02618351
128	0x3c1672d0	0.009182647
129	0x3d1727b6	0.036903106
130	0xbd00ed51	-0.031476323
131	0xbd0ac55b	-0.03387962
132	0x3cc14520	0.023592532
133	0xbab1f12f	-0.0013575907
134	0xbd110f23	-0.035414826
135	0x3cc06624	0.023486204
136	0xbca89301	-0.02057791
137	0xbd4f0a6f	-0.05054706
138	0x3c2a5041	0.010395111
139	0x3d125040	0.035721064
140	0xbcc5fc74	-0.02416823
141	0xbc8818d9	-0.01661341
142	0xbd4796f6	-0.048727952
143	0x3d1e76b9	0.03868744
144	0xbd4a8f6c	-0.049453184
145	0xbcce148b	-0.02515628
146	0xbd41f419	-0.04735193
147	0x3d0f38b9	0.034966204
148	0x3c17f46c	0.009274583
149	0x3c00f516	0.007870933
150	0x3b8f863f	0.004380017
151	0x3b9009a6	0.0043956814
152	0x3d1c8152	0.038209267
153	0xbccb56e9	-0.024821715
154	0x3d307abe	0.043085806
155	0x3c896c8c	0.016775392
156	0x3b7361f4	0.0037137242
157	0xba837c07	-0.001003147
158	0x3d2d8deb	0.04237167
159	0xbcf605ea	-0.030032117
160	0x3d0a174a	0.033713616
161	0x3c91f6a4	0.017817803
162	0xbc4601cb	-0.012085388
163	0xbb35d081	-0.0027742686
164	0x3cc5688e	0.024097707
165	0x3d2c46b7	0.042059626
166	0x3d297c5b	0.04137836
167	0xbcfcdb6f	-0.030866353
168	0xbc88a47b	-0.016679993
169	0x3c842301	0.016129972
170	0xbcd6a2af	-0.02620062
171	0xbc4041a2	-0.011734398
172	0xbd4e3489	-0.05034307
173	0xbd00b721	-0.031424645
174	0xbd26bfcc	-0.040710256
175	0x3c216857	0.009851537
176	0xbd29e7e3	-0.04148091
177	0x3d0c9009	0.03431705
178	0xbbc08a4e	-0.005875862
179	0xbb25d736	-0.0025305278
180	0x3d3157f8	0.043296784
181	0xbc81d8e3	-0.01585049
182	0xbcbfa839	-0.023395645
183	0xbd106213	-0.03524978
184	0x3cca4ecf	0.024695782
185	0x3d0ef43d	0.034900893
186	0x3d26a806	0.040687583
187	0xbcd47343	-0.025933867
188	0x3d2e71b8	0.04258892
189	0x3b081c7e	0.0020768936
190	0xbcf4f4cf	-0.02990189
191	0x3c11382f	0.008863493
192	0xbca4848f	-0.02008274
193	0x3d2c3447	0.042042043
194	0xbcaea618	-0.021319434
195	0xbd2fb061	-0.042892817
196	0x3d0d834d	0.034549046
197	0xb9be8793	-0.00036340635
198	0xbc972951	-0.018452318
199	0x3d2873ce	0.041126065
200	0xbc74451d	-0.014909056
201	0xbd05e832	-0.03269214
202	0x3c8fb8ea	0.017544229
203	0x3c8e7897	0.017391486
204	0x3cf2da1e	0.029645022
205	0x3cb2ad8d	0.021811271
206	0xbc139bcc	-0.009009313
207	0x3cc43cc2	0.023954753
208	0xbad48df9	-0.0016216628
209	0x3bde0252	0.006775179
210	0x3cffc827	0.03122337
211	0x3d181b3b	0.037135344
212	0xbcd84ced	-0.026403869
213	0x3d26aecf	0.040694054
214	0xbd0b82ab	-0.03406016
215	0xbc477c8a	-0.0121756885
216	0xbc5b99e5	-0.0134033905
217	0x3c1e38e5	0.009657119
218	0x3c3c08db	0.011476721
219	0x3cefc5df	0.029269157
220	0x3c57bcb0	0.013167545
221	0xbb298240	-0.0025864989
222	0x3cc64fcd	0.024207974
223	0xbd2dfe2e	-0.042478733
224	0xbcc06f38	-0.023490533
225	0x3ae3ec81	0.0017389209
226	0x3c99e977	0.018788083
227	0xbd0bd5c4	-0.03413941
228	0x3cbe3d59	0.023222612
229	0xbbf9f417	-0.0076279747
230	0xbb12c15c	-0.0022393083
231	0x3c0188d8	0.007906161
232	0x3b8a7787	0.0042256746
233	0xbd37d43e	-0.044880144
234	0xbd5a0a16	-0.053232275
235	0x3c0c447c	0.00856125
236	0xbd3ddff5	-0.04635616
237	0xbce086f9	-0.02740811
238	0x3c96ded2	0.018416796
239	0x3c3ceace	0.011530591
240	0x3c5dacf6	0.013530007
241	0x3c5a464a	0.013322422
242	0xbd0cdde4	-0.0343913
243	0xbaf500d5	-0.0018692265
244	0xbd4e3898	-0.05034694
245	0x3b7458ef	0.0037284454
246	0xbc36363d	-0.01112133
247	0xbd0ea0c5	-0.03482129
248	0xbd3775c4	-0.044790044
249	0xbd2119b7	-0.039331164
250	0x3d2c15d3	0.042013
251	0x3cc87a74	0.024472453
252	0xbcdb8c40	-0.026800275
253	0xbc92b520	-0.017908633
254	0xbc43f247	-0.011959619
255	0xbc7a318b	-0.015270601

0.bias f4 [256]
0	0x3a6ec785	0.000910871
1	0x3b063551	0.0020478556
2	0x34bc8fee	3.5122451e-07
3	0x37d8504e	2.5786601e-05
4	0xb511a7fe	-5.426117e-07
5	0xb555f3b6	-7.970333e-07
6	0xb4350a89	-1.6860771e-07
7	0xb4e1a84c	-4.2031968e-07
8	0x3672b3fa	3.616557e-06
9	0xb6e7ca76	-6.907906e-06
10	0xbad15e51	-0.0015973543
11	0xb966bbc1	-0.00022004453
12	0x37b7378f	2.1841171e-05
13	0x38c235e3	9.260678e-05
14	0x3715ca90	8.928255e-06
15	0xba7b95f7	-0.00095972366
16	0xb9e3de3c	-0.00043462391
17	0x37783877	1.4795099e-05
18	0xb3a8fdc9	-7.869273e-08
19	0x32b040ce	2.0518566e-08
20	0x3853a639	5.0461127e-05
21	0x3514f342	5.5488283e-07
22	0x35181c7f	5.666588e-07
23	0xb9a76ec1	-0.0003193524
24	0x33809a43	5.9885245e-08
25	0x35234119	6.081696e-07
26	0x3405e6be	1.2470534e-07
27	0x339da6e7	7.3412416e-08
28	0x3658d8df	3.2312744e-06
29	0x340eea9d	1.3310132e-07
30	0xb4d0cb29	-3.8890838e-07
31	0xba572f34	-0.0008208633
32	0x38902c23	6.874676e-05
33	0xba421db4	-0.0007404939
34	0x343cca9f	1.7582578e-07
35	0xbaada4cc	-0.0013247966
36	0x34a2e82b	3.0343776e-07
37	0x399698ef	0.00028724174
38	0xba8ff5d8	-0.0010983301
39	0xb3e5b755	-1.06969914e-07
40	0x353a8fec	6.9499833e-07
41	0x3781e63e	1.5485213e-05
42	0x3968b4ef	0.00022192647
43	0xb33c6c2c	-4.3870543e-08
44	0x3482a1d6	2.4332138e-07
45	0xb4cf68ab	-3.863291e-07
46	0x34250cfa	1.5371543e-07
47	0x344fedb9	1.936486e-07
48	0xb34c7512	-4.7603926e-08
49	0xb68e3848	-4.238482e-06
50	0xb385abbd	-6.224534e-08
51	0xba0534ea	-0.0005081432
52	0x33b79d7f	8.55025e-08
53	0x3ab43edc	0.0013751644
54	0x37db8032	2.616653e-05
55	0xb939503f	-0.00017672869
56	0x34c21b90	3.615537e-07
57	0x3452d4a0	1.9635127e-07
58	0x37bf0ccc	2.2774933e-05
59	0x399a84df	0.00029472166
60	0x32aa0196	1.9791326e-08
61	0x389faa03	7.613378e-05
62	0xba4fdd4c	-0.0007929399
63	0x32dc8fc5	2.567675e-08
64	0xb6917451	-4.3348778e-06
65	0x331af49c	3.607839e-08
66	0xb7034941	-7.825264e-06
67	0x39a79137	0.00031960916
68	0xb46ffad4	-2.234986e-07
69	0xb893711a	-7.030573e-05
70	0x332741f5	3.8942705e-08
71	0xb825de3b	-3.9546034e-05
72	0xba861b11	-0.0010231455
73	0xb9974264	-0.0002885043
74	0x345570c7	1.9878199e-07
75	0x3574d725	9.121016e-07
76	0x36218ad2	2.4071674e-06
77	0x3a15b553	0.00057109183
78	0x3a3876bf	0.00070367375
79	0xb4660409	-2.1421887e-07
80	0x33154c06	3.476091e-08
81	0x34d9efba	4.0593824e-07
82	0xb99bcd35	-0.00029716795
83	0xbb03ca60	-0.0020109639
84	0x39fd3077	0.0004829203
85	0x39a41159	0.00031293443
86	0x37d7dfdd	2.5734242e-05
87	0x33c25328	9.048955e-08
88	0xba74cf90	-0.00093387906
89	0x355437c4	7.9057304e-07
90	0xbae037ea	-0.0017106507
91	0xbb00816c	-0.0019608391
92	0x39e184e1	0.00043014347
93	0x3559fb08	8.12041e-07
94	0x36995cdb	4.570565e-06
95	0x39d8f966	0.00041384547
96	0x3ae27bc0	0.0017279312
97	0xbaeb4c67	-0.0017951847
98	0xb4b9b128	-3.4587833e-07
99	0xb2083a10	-7.929444e-09
100	0xb4e6c25b	-4.298225e-07
101	0x39c70410	0.00037959265
102	0x390664db	0.00012816807
103	0x33b95beb	8.6314536e-08
104	0x3aa432d4	0.0012527355
105	0xb3b60b09	-8.477043e-08
106	0x3ae61ee0	0.0017556809
107	0xb4d30e62	-3.9312278e-07
108	0xb4853d06	-2.481758e-07
109	0xba2b968d	-0.0006545566
110	0x32b9f3a6	2.1647633e-08
111	0x34140a73	1.3787376e-07
112	0xb39e3372	-7.366806e-08
113	0xb503aa7f	-4.904941e-07
114	0xb42629d5	-1.5475173e-07
115	0x399b3bf3	0.0002960857
116	0xb8bb6ce0	-8.9371344e-05
117	0x345e1c4a	2.0685653e-07
118	0xb3a9599c	-7.8859756e-08
119	0x35280ec8	6.2606387e-07
120	0xba63297f	-0.0008665546
121	0xb80df5b1	-3.3845838e-05
122	0x33ed729e	1.1057021e-07
123	0xb88f5e59	-6.836345e-05
124	0xb6e56309	-6.836261e-06
125	0xb3886044	-6.350504e-08
126	0xb476cc86	-2.298494e-07
127	0x39166ff2	0.00014346818
128	0xb2ff862c	-2.9746921e-08
129	0x36b9e966	5.540601e-06
130	0xb3c35e90	-9.097596e-08
131	0xb8f88ac4	-0.000118514086
132	0xb44b3c1c	-1.8927716e-07
133	0x3950273f	0.00019851046
134	0xb788c201	-1.6302803e-05
135	0xb9f12aec	-0.0004599908
136	0xb3d3ff13	-9.871851e-08
137	0x3a117406	0.00055486
138	0x3ae61b15	0.0017555678
139	0x37c0ae23	2.2969272e-05
140	0xb33c8b5e	-4.3898915e-08
141	0x37b8b635	2.2019356e-05
142	0x3a024d51	0.00049706275
143	0xb2a7ac0e	-1.95196e-08
144	0xbb022abf	-0.0019861904
145	0x33aab426	7.949011e-08
146	0xb51c60b8	-5.8255273e-07
147	0x33e96d82	1.0869827e-07
148	0xb56812d8	-8.6454156e-07
149	0x3a91aeb7	0.0011114691
150	0xb491f626	-2.718745e-07
151	0xb7a5a242	-1.974509e-05
152	0x39fc6096	0.00048137148
153	0x3ad68e6c	0.0016369349
154	0x3a2fae02	0.00067016494
155	0xb8d91182	-0.000103506274
156	0xb43e8f18	-1.7747186e-07
157	0xb9d9275b	-0.00041418787
158	0x3a27f6af	0.0006407303
159	0xba940653	-0.0011293389
160	0xb31219ac	-3.4016622e-08
161	0xb736458c	-1.0864238e-05
162	0x3375a7b3	5.719603e-08
163	0xb637c6f9	-2.7384942e-06
164	0x3ad4eb8f	0.0016244518
165	0xb3480b93	-4.6576655e-08
166	0xb9d70c2c	-0.00041017064
167	0x341b2409	1.444861e-07
168	0x322b651e	9.976501e-09
169	0xb407e50f	-1.2656186e-07
170	0xb912b1f6	-0.0001398994
171	0xb9d0f824	-0.0003985773
172	0x39e197cd	0.00043028445
173	0xb6dfa2da	-6.6648763e-06
174	0xb5277921	-6.2388614e-07
175	0xb93f2617	-0.00018229369
176	0x32bcceba	2.1980089e-08
177	0x3a758267	0.000936544
178	0xb4506a62	-1.9410211e-07
179	0xb322a437	-3.7867917e-08
180	0xb3ae4dda	-8.1166675e-08
181	0xb89669ff	-7.172301e-05
182	0xb20c1ec6	-8.15607e-09
183	0xb7924ac2	-1.7439368e-05
184	0x3afc4fe6	0.0019249886
185	0x357f3c23	9.5082413e-07
186	0xb3ab9101	-7.989184e-08
187	0x3582cdab	9.745612e-07
188	0xb6943b2c	-4.417632e-06
189	0xbab112da	-0.0013509647
190	0x3af18770	0.0018427204
191	0x34b5b4b0	3.3845345e-07
192	0x3431f3a7	1.657305e-07
193	0x35c21e0c	1.4462871e-06
194	0xb32137a8	-3.7536353e-08
195	0x3acef5bf	0.0015789791
196	0xb4b87d2a	-3.436374e-07
197	0x36d9be74	6.4892756e-06
198	0x39fd6e79	0.0004833823
199	0xb52b734a	-6.387023e-07
200	0x32e5f55e	2.6770689e-08
201	0x35b5be01	1.3540849e-06
202	0x3ae0c662	0.0017148966
203	0xb706692c	-8.01151e-06
204	0xb8da45b2	-0.00010408032
205	0x33b94bb8	8.628507e-08
206	0xba5bb1e2	-0.00083806936
207	0x3885734a	6.3634085e-05
208	0x35e37426	1.6946622e-06
209	0xb4f172ac	-4.4973183e-07
210	0xbb032298	-0.0020009633
211	0x38b296e9	8.5158106e-05
212	0x3a217726	0.0006159417
213	0x3911c68c	0.00013902242
214	0x3861a59c	5.3798416e-05
215	0x39af74bd	0.00033465578
216	0xb71600e9	-8.940909e-06
217	0xba572bbc	-0.0008208116
218	0xb91ac2d0	-0.00014759158
219	0x395816db	0.0002060788
220	0x34e6cf1a	4.2991525e-07
221	0x3ae806e9	0.0017702255
222	0xb69fd18b	-4.7629633e-06
223	0xb3661777	-5.357239e-08
224	0xb42e5b7b	-1.6238293e-07
225	0x3493e910	2.755046e-07
226	0xb5966904	-1.1206434e-06
227	0xb38d9a3c	-6.593879e-08
228	0x346626f2	2.1434587e-07
229	0x3a63b209	0.0008685892
230	0x3414bb07	1.3851614e-07
231	0xb741020d	-1.1504174e-05
232	0x353cceb8	7.0336273e-07
233	0xb8a67d3e	-7.938825e-05
234	0xb8238ad9	-3.899154e-05
235	0xba05b8da	-0.00051010924
236	0xba3dc514	-0.0007239145
237	0x3a5abd01	0.0008344204
238	0x39c36b77	0.00037273366
239	0xba861855	-0.001023064
240	0xbafcf1ce	-0.0019298138
241	0xb81c00f7	-3.7194197e-05
242	0xb70ad0a6	-8.274021e-06
243	0x3784bb6f	1.5822907e-05
244	0xba34f552	-0.00069030107
245	0xb65874b3	-3.2254436e-06
246	0x35351ee2	6.7472695e-07
247	0xb7538bf7	-1.2609168e-05
248	0x33ae19d4	8.1072045e-08
249	0x322ce88c	1.0064593e-08
250	0x38f913b1	0.00011876913
251	0x352255a7	6.0474343e-07
252	0x34836c8a	2.4479624e-07
253	0xbaca4ef3	-0.0015434906
254	0xba9b0f86	-0.0011830188
255	0x389dfd75	7.5335534e-05

1.weight f4 [256]
0	0x3f7bd849	0.983769
1	0x3f7ea953	0.9947712
2	0x3f81eabd	1.0149761
3	0x3f7ad89c	0.9798677
4	0x3f803470	1.0016003
5	0x3f7ff5a0	0.9998417
6	0x3f8094cb	1.0045408
7	0x3f7b7abe	0.98234165
8	0x3f7d8ff4	0.9904778
9	0x3f802edb	1.0014299
10	0x3f7b0ed6	0.9806951
11	0x3f7f6b28	0.9977288
12	0x3f7ac2a3	0.9795324
13	0x3f80f520	1.0074806
14	0x3f7ee5d9	0.9956947
15	0x3f7c44cf	0.98542494
16	0x3f7aa022	0.97900593
17	0x3f7bf0e0	0.9841442
18	0x3f7da769	0.9908357
19	0x3f7da56e	0.9908055
20	0x3f7b089a	0.9806
21	0x3f80e6c3	1.0070423
22	0x3f7a8275	0.9785531
23	0x3f7d76de	0.990095
24	0x3f80108c	1.000505
25	0x3f7f8b0f	0.9982156
26	0x3f811de7	1.008725
27	0x3f7bcde7	0.9836106
28	0x3f78d500	0.9720001
29	0x3f7cf9f4	0.988189
30	0x3f7be01b	0.9838883
31	0x3f803fde	1.0019491
32	0x3f7bd64e	0.9837388
33	0x3f7be449	0.9839521
34	0x3f7b5225	0.9817222
35	0x3f79542a	0.9739405
36	0x3f7d724b	0.9900252
37	0x3f7d157c	0.9886091
38	0x3f7fa6d1	0.99863917
39	0x3f7fc130	0.99904156
40	0x3f8017a3	1.0007213
41	0x3f78c5af	0.9717664
42	0x3f7e9aaa	0.9945475
43	0x3f81ef44	1.0151143
44	0x3f7c4cbf	0.98554605
45	0x3f7e365e	0.9930171
46	0x3f7a2a17	0.97720474
47	0x3f7fbfd7	0.999021
48	0x3f7ad56b	0.979819
49	0x3f7f67ec	0.9976795
50	0x3f7aae47	0.97922176
51	0x3f8029f1	1.00128
52	0x3f8027e9	1.001218
53	0x3f81933f	1.0123061
54	0x3f8069ed	1.0032326
55	0x3f79b821	0.97546583
56	0x3f7e82da	0.99418414
57	0x3f80455d	1.0021168
58	0x3f7c77be	0.9862021
59	0x3f7e6066	0.9936584
60	0x3f79e77d	0.9761885
61	0x3f806578	1.0030966
62	0x3f800a02	1.0003054
63	0x3f801fc6	1.0009696
64	0x3f7f12df	0.9963817
65	0x3f7f699d	0.9977053
66	0x3f7b5499	0.9817596
67	0x3f812d90	1.009203
68	0x3f7ad159	0.9797569
69	0x3f7c6bae	0.98601806
70	0x3f7b1fc1	0.9809533
71	0x3f7ed3f3	0.9954216
72	0x3f7cb5bc	0.98714805
73	0x3f796911	0.97425944
74	0x3f7da616	0.9908155
75	0x3f7c7a95	0.98624545
76	0x3f7b1a53	0.9808704
77	0x3f7a4151	0.97755915
78	0x3f80a3a8	1.0049944
79	0x3f7c18db	0.98475426
80	0x3f7eafb3	0.99486846
81	0x3f7e7f0e	0.9941262
82	0x3f7e1eaf	0.9926557
83	0x3f7cd8e6	0.9876846
84	0x3f8068db	1.0031999
85	0x3f7f1468	0.9964051
86	0x3f7d3dd4	0.9892247
87	0x3f805ba8	1.0027971
88	0x3f824573	1.0177444
89	0x3f7c29ea	0.98501456
90	0x3f803889	1.0017253
91	0x3f7fe32f	0.9995603
92	0x3f7d52a2	0.9895421
93	0x3f81360d	1.009462
94	0x3f7eef5a	0.9958397
95	0x3f80d856	1.006602
96	0x3f7aa857	0.97913116
97	0x3f7e6db4	0.99386144
98	0x3f7b265a	0.98105395
99	0x3f7ab963	0.9793913
100	0x3f80d5d2	1.0065253
101	0x3f7d2237	0.9888033
102	0x3f7fd101	0.9992829
103	0x3f81d5ce	1.0143373
104	0x3f7b6c04	0.98211694
105	0x3f80b713	1.005587
106	0x3f7f5a00	0.99746704
107	0x3f7eeb80	0.99578094
108	0x3f7bcf61	0.9836331
109	0x3f7f90ca	0.99830306
110	0x3f7ad675	0.97983485
111	0x3f7aabb1	0.9791823
112	0x3f7bd4d8	0.9837165
113	0x3f7c7579	0.9861675
114	0x3f79bfa0	0.9755802
115	0x3f7b7bc2	0.98235714
116	0x3f7aa9f1	0.9791556
117	0x3f7f8403	0.9981081
118	0x3f7c7807	0.9862065
119	0x3f7dda21	0.99160963
120	0x3f7c4e6e	0.98557174
121	0x3f7f6375	0.99761134
122	0x3f80f32c	1.007421
123	0x3f7cba0d	0.9872139
124	0x3f7fa106	0.9985508
125	0x3f7d4aa3	0.9894201
126	0x3f811143	1.0083393
127	0x3f7db590	0.9910517
128	0x3f7e723b	0.9939305
129	0x3f797865	0.9744933
130	0x3f7dbfc1	0.9912072
131	0x3f8059b1	1.0027372
132	0x3f7d7f8b	0.9902274
133	0x3f8083ad	1.0040184
134	0x3f7ba56b	0.9829928
135	0x3f7b4904	0.9815829
136	0x3f7a6f02	0.97825634
137	0x3f7b2fcd	0.98119813
138	0x3f7b15bf	0.98080057
139	0x3f810ad9	1.0081435
140	0x3f78b6c8	0.971539
141	0x3f784537	0.96980613
142	0x3f7dc081	0.9912186
143	0x3f7a28ca	0.9771849
144	0x3f7e613d	0.99367124
145	0x3f7f3a4f	0.99698347
146	0x3f7f91d4	0.9983189
147	0x3f7f807b	0.9980542
148	0x3f7e36db	0.9930245
149	0x3f806732	1.0031493
150	0x3f7cb355	0.9871114
151	0x3f7adceb	0.97993344
152	0x3f7aef57	0.98021454
153	0x3f8158d3	1.0105232
154	0x3f7c518e	0.9856194
155	0x3f7d711c	0.99000716
156	0x3f789099	0.9709564
157	0x3f81f311	1.0152303
158	0x3f7ece2d	0.9953335
159	0x3f7e387e	0.9930495
160	0x3f7be8fa	0.9840237
161	0x3f81c91a	1.0139496
162	0x3f7b4b43	0.98161715
163	0x3f811ba3	1.0086559
164	0x3f7fb5b7	0.9988665
165	0x3f7ac232	0.9795257
166	0x3f7b9ef7	0.98289436
167	0x3f7a8d38	0.9787173
168	0x3f809c4a	1.0047696
169	0x3f78cab4	0.971843
170	0x3f7fe511	0.999589
171	0x3f7c4972	0.9854957
172	0x3f806152	1.00297
173	0x3f7cbbf7	0.9872431
174	0x3f82c3c2	1.021599
175	0x3f7f69a3	0.99770564
176	0x3f7bacce	0.98310554
177	0x3f7a7c10	0.97845554
178	0x3f80cb69	1.0062076
179	0x3f7db7d1	0.99108607
180	0x3f790b34	0.9728272
181	0x3f7ba669	0.98300797
182	0x3f7b38a0	0.9813328
183	0x3f7cb40f	0.9871225
184	0x3f7abf92	0.97948563
185	0x3f7bda9e	0.9838046
186	0x3f79aa79	0.97525746
187	0x3f7c05d1	0.98446375
188	0x3f7d4e07	0.98947185
189	0x3f829b88	1.0203714
190	0x3f7e9e62	0.99460423
191	0x3f7b12ec	0.9807575
192	0x3f804656	1.0021465
193	0x3f80d5ee	1.0065286
194	0x3f81f49a	1.0152771
195	0x3f79e382	0.97612774
196	0x3f7eef98	0.9958434
197	0x3f7af504	0.98030114
198	0x3f7a3391	0.97734934
199	0x3f7e3211	0.99295145
200	0x3f7bacb7	0.98310417
201	0x3f7b9604	0.9827578
202	0x3f7e10a5	0.9924415
203	0x3f7b515b	0.98171014
204	0x3f80c58d	1.0060288
205	0x3f7ad2fd	0.9797819
206	0x3f7c8235	0.9863618
207	0x3f7cf336	0.9880861
208	0x3f7f8e03	0.9982607
209	0x3f809c25	1.0047652
210	0x3f7bab4d	0.9830826
211	0x3f7d386b	0.9891421
212	0x3f7a702c	0.9782741
213	0x3f8180da	1.0117447
214	0x3f7da5ff	0.99081415
215	0x3f7b153b	0.9807927
216	0x3f79db71	0.97600466
217	0x3f7c7d44	0.9862864
218	0x3f7e6133	0.99367064
219	0x3f807938	1.0036993
220	0x3f7f5ed1	0.99754053
221	0x3f7ce46b	0.9878604
222	0x3f7b1286	0.9807514
223	0x3f7fefe0	0.99975395
224	0x3f797ba0	0.9745426
225	0x3f7c27a9	0.98498017
226	0x3f7cb5e7	0.9871506
227	0x3f7a3e8f	0.97751707
228	0x3f7f185e	0.99646556
229	0x3f7ea7ee	0.9947499
230	0x3f80cf9e	1.006336
231	0x3f7ba7b2	0.9830276
232	0x3f7f65c3	0.9976465
233	0x3f7d1428	0.9885888
234	0x3f7feca7	0.9997048
235	0x3f7e819e	0.9941653
236	0x3f7bbabb	0.98331803
237	0x3f7ca17f	0.98683923
238	0x3f787b4a	0.97063124
239	0x3f806cb0	1.0033169
240	0x3f8216b5	1.016318
241	0x3f7e95f1	0.9944754
242	0x3f80eab6	1.0071628
243	0x3f7cd061	0.9875546
244	0x3f7c47d7	0.9854712
245	0x3f7add42	0.9799386
246	0x3f7c9725	0.9866813
247	0x3f80072d	1.000219
248	0x3f7baad9	0.9830757
249	0x3f7b7291	0.9822169
250	0x3f79a591	0.9751826
251	0x3f7e4465	0.9932311
252	0x3f7c2e45	0.985081
253	0x3f7e40bc	0.99317527
254	0x3f7f7a1b	0.99795693
255	0x3f800283	1.0000767

1.bias f4 [256]
0	0xbbc78bb5	-0.0060896524
1	0xb9c2f1b8	-0.00037182658
2	0x3c4d180e	0.012517942
3	0xbcabbacc	-0.020963095
4	0xbc04b226	-0.0080991145
5	0xb8c7bd1b	-9.524283e-05
6	0x3b9bc584	0.0047537703
7	0xbc00aa87	-0.007853157
8	0xbcbfc19f	-0.023407755
9	0xbc6af780	-0.014341235
10	0xbbf5095e	-0.0074779233
11	0xbc5ff801	-0.013669969
12	0x3b15e378	0.0022871178
13	0x3c3b9b79	0.011450642
14	0x39aef074	0.00033367018
15	0x3c3bedb4	0.011470247
16	0xbccda010	-0.025100738
17	0xbc42ba52	-0.011885243
18	0x3b8afab0	0.00424131
19	0xbc9dfc18	-0.019285247
20	0xbc6dba26	-0.014509713
21	0x3c2140f9	0.009842151
22	0xbc742b0c	-0.014902841
23	0xbc027a56	-0.0079637375
24	0xbbd86be8	-0.0066046603
25	0xbbd98f75	-0.006639416
26	0x3a009993	0.0004905697
27	0xbc8b4054	-0.016998447
28	0xbc864a08	-0.016392723
29	0xbbecb9fc	-0.0072243195
30	0xbba442b1	-0.005012833
31	0x3c326847	0.0108891195
32	0xbc164ac4	-0.009173099
33	0xbcba87b5	-0.022769788
34	0xbc194250	-0.009354189
35	0xbc83039f	-0.015992938
36	0x3c8b9ac9	0.01704158
37	0x3cb5d752	0.0221974
38	0x3ceb392b	0.028713783
39	0x3a48d063	0.00076604466
40	0x3b8e66b2	0.0043457383
41	0xbc6ed1f7	-0.014576427
42	0x39c1077d	0.00036817408
43	0x3c4013d9	0.011723482
44	0x3cac7923	0.021053856
45	0xbca96bc0	-0.020681262
46	0xbca3cbf7	-0.019994719
47	0xbc694896	-0.014238497
48	0xbc6a51fc	-0.014301773
49	0x3b5b32d3	0.0033447042
50	0xbc92a8f5	-0.01790283
51	0xbb9a4e53	-0.004709044
52	0x395fb6a8	0.00021334982
53	0x3c756b52	0.0149792
54	0x3c7bc41f	0.015366583
55	0xbcc39f6c	-0.02387973
56	0x3c95cb42	0.018285397
57	0x3c4c157c	0.012456294
58	0x3c3bde9d	0.011466649
59	0xb9d9ec6e	-0.0004156562
60	0xbc5e287a	-0.013559455
61	0xba5a900f	-0.00083375064
62	0x3c9fc56f	0.019503323
63	0x3a926cd1	0.0011171346
64	0xbc171649	-0.009221622
65	0xbac9fd33	-0.0015410542
66	0xbb234f0e	-0.0024918946
67	0x3c993866	0.01870365
68	0xbcafba64	-0.021451183
69	0x3a212103	0.0006146582
70	0x3b462afc	0.0030238023
71	0xbcd29077	-0.025703652
72	0xbba35df3	-0.004985565
73	0xbcc96e92	-0.024588857
74	0xbc980c80	-0.018560648
75	0xbc63ebba	-0.013911182
76	0xbcd8cfad	-0.026466215
77	0xbc1564c7	-0.0091182655
78	0xbc3064e4	-0.010766242
79	0xbc348fae	-0.011020584
80	0x3bb1e35b	0.005428714
81	0xb9efb1fc	-0.0004571824
82	0x3cada92e	0.021198835
83	0xbc10268e	-0.008798255
84	0x39d0e707	0.0003984498
85	0x3bdd2db5	0.0067498335
86	0x3b1aa251	0.0023595283
87	0x3ab760e6	0.001399067
88	0xbc08d3ae	-0.00835125
89	0xbb232286	-0.0024892404
90	0x3a965a0c	0.0011470928
91	0x3bd1ea0a	0.0064060735
92	0xbc62940d	-0.013829243
93	0x3bf7f9a9	0.0075676036
94	0x3c29ae61	0.010356517
95	0xbba67230	-0.00507953
96	0xbbf392c6	-0.0074332682
97	0xbc5b1282	-0.013371112
98	0xbbc378ca	-0.005965327
99	0xbc4bb507	-0.012433297
100	0x3bec35f5	0.0072085806
101	0xbc1d27f4	-0.009592045
102	0xbbf521e0	-0.007480845
103	0x3a9da168	0.0012026252
104	0x3b13cffc	0.0022554388
105	0x3c021cdb	0.00794145
106	0xbc75eb39	-0.015009695
107	0xbce177dd	-0.027522976
108	0xbc205ac6	-0.009787267
109	0xba6abffb	-0.0008954999
110	0xbc6f3145	-0.014599149
111	0xbad8e121	-0.0016546586
112	0xbb2ecc4e	-0.0026672068
113	0xbc509b01	-0.012732268
114	0xbcc2635e	-0.023729023
115	0x3acf7fb6	0.0015830908
116	0xbc400b7a	-0.011721486
117	0xbc8be5b5	-0.017077306
118	0xbc67ca95	-0.01414742
119	0x3b40b469	0.0029404408
120	0x3a566630	0.0008178679
121	0xbc2f8f29	-0.010715284
122	0x3c129c17	0.0089483475
123	0xb9fe4718	-0.00048499624
124	0xbcd72a7f	-0.02626538
125	0xbc654cee	-0.013995392
126	0x3b6d93ed	0.00362515
127	0xbc0f9aa6	-0.008764898
128	0xbb923a73	-0.004462534
129	0xbc17c796	-0.009263894
130	0xbab45a49	-0.0013759817
131	0xbbed4ebb	-0.0072420514
132	0xbc8f59f0	-0.01749894
133	0xbae3c6d9	-0.0017377987
134	0xbcaca91b	-0.02107673
135	0xbb83ec8d	-0.004026002
136	0xbc0cb8be	-0.008588968
137	0xbc9cfa0d	-0.019162202
138	0x3c0f8c8a	0.0087615345
139	0xbb1b77c7	-0.0023722516
140	0xbca36f18	-0.019950435
141	0xbcd520bb	-0.026016584
142	0xbc359b63	-0.01108441
143	0xbbfb0e13	-0.00766159
144	0x3b61d2b2	0.003445786
145	0x3a0d9131	0.00054003584
146	0xbc09da46	-0.008413857
147	0xbc00a656	-0.007852158
148	0xbcaae079	-0.02085899
149	0x3c2743cb	0.010209034
150	0xbb29d048	-0.0025911499
151	0xbc65f72d	-0.014035982
152	0xbbb572cd	-0.005537367
153	0x3c0f9b5c	0.008765068
154	0xbc3d0440	-0.011536658
155	0xbc9227c8	-0.017841235
156	0xbca7b67d	-0.02047276
157	0x3c845d14	0.016157664
158	0xbc46dbe5	-0.012137388
159	0xbc7b907f	-0.015354275
160	0xbc387b0d	-0.011259806
161	0x3cfdf8f9	0.031002508
162	0x3c535853	0.012899476
163	0x3aa119f6	0.0012291062
164	0xbc170049	-0.009216377
165	0xbc30ae0b	-0.010783683
166	0xba58a5cf	-0.00082644535
167	0xbc307b08	-0.01077152
168	0x3c9508eb	0.018192729
169	0xbbf5f398	-0.0075058453
170	0x3c221e23	0.0098948805
171	0x3afff866	0.0019528985
172	0x3b2482d4	0.0025102394
173	0xbc6be90a	-0.014398823
174	0x3c87d006	0.016578685
175	0x3c11ce0f	0.008899226
176	0x3ba2f848	0.004973445
177	0xbc5c8e75	-0.013461699
178	0x3c82c94d	0.015965128
179	0x3c480824	0.012208972
180	0xbc14e57b	-0.0090879155
181	0xbc4bd7b2	-0.0124415625
182	0x3acf1737	0.0015799765
183	0xbca8b236	-0.02059279
184	0xbc8fab9c	-0.017537884
185	0x3a6ceec3	0.0009038264
186	0xbc2ad699	-0.010427141
187	0xbc50353b	-0.012708004
188	0xb8a7ddba	-8.00448e-05
189	0x3c957f7a	0.018249262
190	0x3bdb0a53	0.0066845804
191	0xbc937234	-0.017998792
192	0x3cb72b89	0.022359626
193	0xbc7c4e87	-0.015399582
194	0x3ccb73f1	0.024835559
195	0xba96b406	-0.0011497743
196	0x3c76316f	0.015026434
197	0xbb8ecabc	-0.004357664
198	0xbccfc4cf	-0.0253624
199	0xbcdcf73d	-0.026973361
200	0xbc0e65da	-0.0086912755
201	0x3b3c81f6	0.0028763986
202	0x3c317707	0.010831601
203	0xbb904ebb	-0.0044039167
204	0xbbb4f242	-0.0055220434
205	0xbc3a42e0	-0.011368483
206	0xbc86d70a	-0.01645996
207	0x3b6492b0	0.0034877472
208	0x3b2e8c4e	0.002663392
209	0xbc884f37	-0.016639335
210	0x3c6127ee	0.01374243
211	0x3c19c4ec	0.009385329
212	0xbc16ca8f	-0.009203567
213	0xbcbe4aee	-0.023229089
214	0xbc947d47	-0.018126143
215	0xbbeafa24	-0.0071709324
216	0xbc6f8709	-0.014619597
217	0xbc801310	-0.01563409
218	0xbc3d2466	-0.011544323
219	0x3c830f04	0.015998371
220	0x3bd29d0a	0.006427412
221	0xbcf4d4ce	-0.02988663
222	0x3cad51cd	0.02115717
223	0xbbeade4b	-0.0071676127
224	0xbc9d5bf1	-0.01920888
225	0xbcc36861	-0.023853483
226	0xba3173bc	-0.000676926
227	0xbc8e5d9f	-0.017378626
228	0x3c2beed7	0.010493956
229	0x3b1b5e18	0.0023707207
230	0xbbd203de	-0.0064091524
231	0x3baa2b4c	0.0051931497
232	0xbc313d53	-0.0108178435
233	0xbca052a3	-0.019570654
234	0x3c0b1aad	0.008490247
235	0x3c9a38d3	0.018825924
236	0xbc9f9b27	-0.019483162
237	0x3bb6805b	0.0055695004
238	0xbcbeea66	-0.02330513
239	0x3c06566a	0.008199314
240	0xba9bf5dc	-0.0011898833
241	0x3add76f4	0.0016896413
242	0xbb029d97	-0.0019930357
243	0xbcde032b	-0.02710112
244	0xbc9e9012	-0.019355807
245	0x3bdfb334	0.0068267826
246	0xbc498914	-0.012300748
247	0xbc483efd	-0.012222049
248	0xbc924e44	-0.017859586
249	0x3ace5a42	0.0015743452
250	0xbc39928a	-0.011326442
251	0xbc5f0d5a	-0.013614023
252	0x3b83910b	0.004015093
253	0x3c67414b	0.014114688
254	0xbc727a53	-0.014799672
255	0x3bf6004a	0.0075073587

1.running_mean f4 [256]
0	0x3c169e5a	0.009193027
1	0xbd8c833f	-0.06860971
2	0x3e16c702	0.14724353
3	0xbeaea6eb	-0.34111723
4	0xbe1163ac	-0.14198178
5	0xbeb9af8d	-0.36266747
6	0xbe95f5ce	-0.29289097
7	0x3e50f80e	0.20407125
8	0xbeb56d88	-0.35435128
9	0x3e859958	0.26093554
10	0x3f045f84	0.51708245
11	0xbed7c198	-0.42139888
12	0x3ed6b772	0.41936833
13	0x3ecd4206	0.40089434
14	0x3f35bbe5	0.7098983
15	0x3e5aa76d	0.2135293
16	0xbf0fee17	-0.5622267
17	0xbd0767e8	-0.033058077
18	0xbe3e9582	-0.1861172
19	0x3dac7f71	0.08422745
20	0xbf1c3ede	-0.6103343
21	0xbf4fc192	-0.8115474
22	0x3f99086c	1.1955695
23	0x3eb82ae0	0.3597021
24	0xbd8d48dd	-0.06898663
25	0xbf46e056	-0.7768606
26	0xbe810a90	-0.2520337
27	0xbf0b8e2d	-0.5451382
28	0x3e431857	0.19052254
29	0xbf4d78f1	-0.80262667
30	0xbe4b61b4	-0.1986149
31	0xbf832ef7	-1.0248708
32	0xbf17d001	-0.59301764
33	0x3e86b5eb	0.26310667
34	0xbf44ee3a	-0.76926005
35	0x3ee65706	0.4498827
36	0x3f8c2178	1.0947714
37	0x3cfff48a	0.031244535
38	0x3f2e16da	0.6800362
39	0xbed94961	-0.42438796
40	0x3f038aac	0.5138347
41	0x3eb8e368	0.36110997
42	0xbf25dec3	-0.6479303
43	0x3ddc070b	0.10743531
44	0x3f647fef	0.8925771
45	0xbf416854	-0.7554982
46	0xbed927b5	-0.42413107
47	0x3ea8ccff	0.329689
48	0x3dcff20d	0.101535894
49	0x3d8a2ab0	0.06746423
50	0x3e2020b5	0.15637477
51	0xbf637c2b	-0.8886134
52	0xbf1f0607	-0.6211857
53	0xbf475dd5	-0.7787755
54	0x3ec330f7	0.38123295
55	0xbe73ab5e	-0.2379584
56	0x3eee52c0	0.46547508
57	0xbeff7e76	-0.4990117
58	0x3f75aef5	0.9597009
59	0x3f0ac8ac	0.5421245
60	0x3e8e81f5	0.27833524
61	0x3f3fd3cd	0.7493256
62	0xbe9fa044	-0.3117696
63	0xbece7a6f	-0.40327784
64	0xbdb271e2	-0.08713128
65	0x3f50f2c9	0.8162046
66	0xbca57bb8	-0.020200595
67	0x3f139dbb	0.5766255
68	0xbe58f7a6	-0.2118822
69	0xbe998612	-0.299851
70	0x3ebe90d3	0.37219867
71	0xbf584c1a	-0.8449112
72	0xbeff117c	-0.49818027
73	0x3d8afe18	0.06786746
74	0xbfce08cd	-1.6096436
75	0x3f3967f4	0.72424245
76	0xbe7b110c	-0.24518222
77	0x3eddd051	0.43322995
78	0xbd8e9104	-0.06961253
79	0xbef41693	-0.47673473
80	0xbe905a76	-0.28194016
81	0xbf527689	-0.8221212
82	0xbbcebe6e	-0.006309322
83	0x3dd76767	0.10517769
84	0xbf88e08c	-1.0693526
85	0x3f09c64d	0.5381821
86	0xbe7cb258	-0.24677408
87	0xbd34e806	-0.044166587
88	0xbf1e3e5f	-0.6181392
89	0xb9b9ee10	-0.0003546332
90	0x3e819a8e	0.25313228
91	0x3ea193f3	0.3155819
92	0x3f131a73	0.57462233
93	0x3eade713	0.33965358
94	0x3fa64649	1.2990199
95	0xbf6ce4de	-0.92536724
96	0xbe317ee3	-0.1733356
97	0x3d730a82	0.059336193
98	0xbd5cfc84	-0.053951755
99	0x3e94a90b	0.2903522
100	0xbf982505	-1.1886297
101	0x3e8f9efb	0.2805098
102	0x3f0b0d52	0.543172
103	0xbd4822cc	-0.04886131
104	0xbd84b7e4	-0.06480387
105	0x3ee41cb7	0.44553158
106	0xbe0c24cc	-0.13685912
107	0xbf7cbf72	-0.9872962
108	0x3f117ef0	0.56834316
109	0xbf13a78b	-0.57677525
110	0xbe8bf4f5	-0.27335325
111	0x3f1b81d0	0.60744953
112	0xbc702e61	-0.014659495
113	0xbf2fcb3b	-0.6866948
114	0xbc37debf	-0.01122254
115	0xbdbb04c0	-0.09131765
116	0x3f0be64a	0.5464827
117	0xbd910359	-0.07080717
118	0xbee81db0	-0.4533515
119	0x3ef4feef	0.4785075
120	0x3ed25d41	0.41086772
121	0xbe6f170f	-0.2334864
122	0xbf422c70	-0.75849056
123	0x3e26203e	0.16223237
124	0xbf9f6729	-1.2453357
125	0x3b80c4e2	0.0039297203
126	0xbea911ac	-0.33021295
127	0xbecc7aa8	-0.3993733
128	0x3edfd861	0.43719772
129	0x3f73ed58	0.9528403
130	0xbe1bce4b	-0.15215413
131	0x3e1a563f	0.15071963
132	0x3f58ecd5	0.84736377
133	0xbf0c8714	-0.5489361
134	0x3daf6fca	0.08566244
135	0x3f1897e9	0.59606797
136	0x3e5fdf3a	0.21862498
137	0xbc461d76	-0.012091985
138	0xbe9a7de5	-0.30174175
139	0xbf017f75	-0.5058511
140	0xbe746a3f	-0.23868655
141	0x3b97e77c	0.0046357494
142	0xbe8063c2	-0.2507611
143	0xbeb88810	-0.36041307
144	0x3e4da421	0.20082141
145	0xbf0afd40	-0.5429268
146	0x3f321625	0.6956504
147	0xbe1321f3	-0.1436842
148	0x3f2b582b	0.6693141
149	0xbf2eae2f	-0.68234533
150	0x3f1b9d18	0.6078658
151	0xbdce5b0e	-0.10075961
152	0x3e16cd8e	0.1472685
153	0x3e2cbf42	0.16869834
154	0xbe8575f0	-0.26066542
155	0xbe83eccd	-0.25766602
156	0xbcf98525	-0.030458996
157	0x3db82b87	0.08992677
158	0x3e05578d	0.13021679
159	0x3d81e000	0.06341553
160	0x3ea202f7	0.31642887
161	0x3f14fa9e	0.5819491
162	0x3ef67f28	0.48143888
163	0x3eea6c06	0.4578554
164	0xbf504f59	-0.81371075
165	0xbe28f006	-0.16497812
166	0x3f827fcd	1.0195252
167	0xbe259cfc	-0.16173166
168	0xbdeeea3a	-0.11665769
169	0x3e37534b	0.17902867
170	0x3eb8dd4d	0.3610634
171	0x3ecfecb5	0.4061028
172	0xbeb71e3f	-0.35765263
173	0xbec08575	-0.3760182
174	0x3f66f09b	0.90210885
175	0x3ed2fecb	0.41210017
176	0x3b4409e7	0.0029913129
177	0x3e97f352	0.29677826
178	0xbf960bd4	-1.172236
179	0xbf0acbaf	-0.54217046
180	0x3e579f1b	0.21056788
181	0x3dd1a61e	0.102367625
182	0x3cd91462	0.026498977
183	0xbd64ec39	-0.055889342
184	0x3e408515	0.18800767
185	0x3f7c32dc	0.98515105
186	0xbefa0ebd	-0.4883937
187	0xbe675fe3	-0.22595172
188	0x3d7dc251	0.061952893
189	0x3ea560ef	0.32300517
190	0xbf0041bf	-0.5010032
191	0x3cdf9256	0.027291458
192	0x3ee6031a	0.4492424
193	0xbecd2045	-0.40063682
194	0xbf2acd1d	-0.6671923
195	0x3f04b3b7	0.51836723
196	0x3d0bb483	0.034107696
197	0x3e962a6c	0.2932924
198	0x3f304dca	0.68868697
199	0xbf2179a2	-0.6307622
200	0xbe9e327e	-0.30897897
201	0xbddced2a	-0.10787423
202	0x3d2c7ecb	0.042113107
203	0x3f03d2c0	0.51493454
204	0xbfaa034c	-1.3282256
205	0xbf0f5a89	-0.5599752
206	0xbf585acd	-0.8451355
207	0xbe7d039a	-0.24708405
208	0xbf7c89d8	-0.9864783
209	0x3d8692a5	0.06570939
210	0x3ec8ec64	0.39242852
211	0x3ea17fda	0.31542856
212	0xbe84dbf8	-0.25949073
213	0xbebae5cf	-0.36503455
214	0xbe7ac372	-0.24488619
215	0x3e08ae34	0.13347703
216	0xbef7155c	-0.48258483
217	0xbe3a300c	-0.18182391
218	0xbdcde788	-0.10053927
219	0xbe873bd1	-0.26412824
220	0xbdd49f12	-0.10381903
221	0xbe9c8f17	-0.3057792
222	0xbc89ed78	-0.016836867
223	0xbf069057	-0.52563995
224	0x3ec13c80	0.3774147
225	0xbd59b54c	-0.053151414
226	0xbe2e182e	-0.17001411
227	0xbc683fb4	-0.014175344
228	0x3e4c695e	0.1996207
229	0x3e325761	0.17416145
230	0xbeaedd86	-0.34153384
231	0x3e752570	0.23940063
232	0xbdd72c41	-0.10506488
233	0xbee90950	-0.45514917
234	0x3f18157b	0.59407777
235	0xbf2c6cc1	-0.67353445
236	0xbf8030f2	-1.0014937
237	0xbee4319f	-0.44569108
238	0x3effc706	0.4995653
239	0xbeca3579	-0.3949392
240	0xbfaccb4c	-1.3499541
241	0x3dc4abef	0.09603106
242	0x3e7d623d	0.24744506
243	0xbf6043e7	-0.8760361
244	0x3ed527ad	0.41631833
245	0x3f72a416	0.94781625
246	0x3effeb28	0.49984097
247	0x3e47fd51	0.19530226
248	0xbf266c97	-0.65009445
249	0x3ec961a4	0.39332306
250	0xbe1a2494	-0.15053016
251	0xbe15f451	-0.1464398
252	0xbd3a618d	-0.045503188
253	0x3d0a925f	0.033830997
254	0xbf2bc4eb	-0.6709735
255	0xbe6a54c6	-0.22883901

1.running_var f4 [256]
0	0x3d284295	0.041079123
1	0x3d37aab7	0.04484054
2	0x3c2556b1	0.01009147
3	0x3e48c6ae	0.1960704
4	0x3be11f65	0.0068701976
5	0x3c429a55	0.011877616
6	0x3deef24f	0.116673104
7	0x3d3e69f1	0.046487752
8	0x3ce487ad	0.027896727
9	0x3bcdfac6	0.006285998
10	0x3d7d85c3	0.061895143
11	0x3dd03724	0.10166767
12	0x3f491632	0.7854949
13	0x3c840498	0.016115472
14	0x3b65a95d	0.0035043575
15	0x3eb73672	0.35783726
16	0x3e8d10f2	0.2755199
17	0x3c40a3f1	0.011757837
18	0x3dea0395	0.114264645
19	0x3ba07e97	0.004897903
20	0x3dfef93b	0.12449881
21	0x3d147aa3	0.036249768
22	0x3c79b9e2	0.015242072
23	0x3e6399ed	0.22226687
24	0x3d277974	0.04088731
25	0x3ca0ad02	0.019613747
26	0x3bd51fb0	0.0065040216
27	0x3d9382f1	0.072027095
28	0x3f22545b	0.63409966
29	0x3e3008a8	0.17190802
30	0x3c610a82	0.013735415
31	0x3c139ed6	0.009010037
32	0x3b237bfb	0.0024945724
33	0x3ca258fc	0.019817822
34	0x3d503c9b	0.050839048
35	0x3e76c05d	0.24096818
36	0x3d7cc33a	0.06170962
37	0x3dabedd2	0.0839497
38	0x3d1af215	0.037828524
39	0x3d55b1d3	0.05217154
40	0x3bb22cb9	0.0054374603
41	0x3e33e8d4	0.17569286
42	0x3a70e7e4	0.0009189828
43	0x3cb5aa3b	0.022175899
44	0x3cbe7aca	0.02325191
45	0x3dc10719	0.09425182
46	0x3d064869	0.0327839
47	0x3e03c602	0.12868503
48	0x3c00e800	0.007867813
49	0x3ba896a8	0.0051449127
50	0x3d578bcd	0.05262356
51	0x3b82ac0a	0.003987794
52	0x3f5c4297	0.8603911
53	0x3d4b40ea	0.049622454
54	0x3e2e8aa3	0.17045073
55	0x3e2de22e	0.16980812
56	0x3e219c20	0.15782213
57	0x3d03955d	0.032124866
58	0x3e1aa980	0.15103722
59	0x3ca29870	0.019848078
60	0x3e92b2e8	0.2865212
61	0x3da7e83c	0.08198592
62	0x3cb5d3e4	0.022195764
63	0x3c9ff02a	0.019523699
64	0x3db4795e	0.088122115
65	0x3c8b6dab	0.017020067
66	0x3c5236a2	0.012830408
67	0x3b7a1776	0.0038160956
68	0x3d4d22f4	0.050082162
69	0x3dc7e7b1	0.097609885
70	0x3eb44911	0.35211995
71	0x3bda6aff	0.006665587
72	0x3e740ffd	0.23834224
73	0x3e03cdc6	0.12871465
74	0x3e066c12	0.13127163
75	0x3c692f31	0.014232443
76	0x3cc22f09	0.023704069
77	0x3e66d789	0.22543158
78	0x3c8750ac	0.01651796
79	0x3cad53e9	0.021158176
80	0x3e61576c	0.22006005
81	0x3c784193	0.015152353
82	0x3e8531f1	0.26014665
83	0x3d1264e5	0.03574075
84	0x3d2a42b8	0.041567534
85	0x3dbe90c2	0.09304954
86	0x3e00da3d	0.12583251
87	0x3d06780a	0.032829322
88	0x3b4dda40	0.0031410605
89	0x3e869fd2	0.26293808
90	0x3bf73b08	0.007544879
91	0x3c77b365	0.015118455
92	0x3cf926e4	0.030414052
93	0x3b64a5f2	0.003488895
94	0x3c23ce5c	0.00999793
95	0x3c4d6fae	0.012538834
96	0x3f58f4a9	0.8474832
97	0x3d149755	0.036277134
98	0x3ca8ec9b	0.020620635
99	0x3e84a405	0.25906387
100	0x3d04c231	0.032411758
101	0x3ba7f4ab	0.0051256022
102	0x3d6d7cf0	0.057980478
103	0x3d0c5d6d	0.034268785
104	0x3e240bd8	0.16020143
105	0x3d9c66a6	0.07636766
106	0x3ec0e8bc	0.37677562
107	0x3c3210d0	0.010868266
108	0x3d9d8ee5	0.076932706
109	0x3de77efd	0.11303518
110	0x3e5de877	0.2167071
111	0x3d355c9a	0.044277765
112	0x3d4eb8c1	0.050469164
113	0x3c27a9e1	0.010233373
114	0x3c3b0a7c	0.011416074
115	0x3ed2d20e	0.41175884
116	0x3c1b1341	0.00946504
117	0x3c7cdb8d	0.015433204
118	0x3ce7fa5a	0.02831762
119	0x3b9a774e	0.0047139293
120	0x3b9dfe10	0.0048215464
121	0x3c1a31ac	0.009411257
122	0x3d820cdc	0.06350109
123	0x3e8614b7	0.2618768
124	0x3b690685	0.0035556864
125	0x3bdced16	0.00674213
126	0x3c90e8a5	0.017689059
127	0x3dfd8970	0.1237973
128	0x3e3dad05	0.18523033
129	0x3e8ec5a5	0.27885166
130	0x3e238c45	0.15971477
131	0x39866893	0.00025636386
132	0x3b9a3403	0.0047059073
133	0x3bca97cf	0.006182648
134	0x3c8f8412	0.01751903
135	0x3ef0a2c2	0.46999174
136	0x3e275eb0	0.16344714
137	0x3d032c06	0.032024406
138	0x3e844876	0.25836533
139	0x3bafb9ab	0.0053627095
140	0x3db90283	0.09033682
141	0x3b7ad078	0.003827123
142	0x3e2f8846	0.17141828
143	0x3e93727c	0.28798282
144	0x3c44483c	0.011980113
145	0x3e20b8f1	0.1569555
146	0x3bebd0ee	0.007196537
147	0x3dc020b0	0.09381235
148	0x3c14a532	0.009072589
149	0x3d0ed268	0.034868628
150	0x3c15d502	0.009145023
151	0x3d2331f5	0.039842565
152	0x3c98f4b5	0.018671373
153	0x3e127de4	0.14305836
154	0x3e23bff8	0.15991199
155	0x3d1cac32	0.038250156
156	0x3c87602b	0.016525349
157	0x3c8362b6	0.01603828
158	0x3c9fd475	0.019510487
159	0x3d4234a7	0.047413494
160	0x3b90f2b2	0.004423463
161	0x3c3e5101	0.0116159925
162	0x3ee737af	0.4515967
163	0x3b1f22d4	0.0024282234
164	0x3c9c4210	0.01907447
165	0x3e343d35	0.17601474
166	0x3e04d157	0.12970482
167	0x3d890232	0.06689872
168	0x3c70fe2b	0.014709036
169	0x3ba5172e	0.0050381636
170	0x3c39c1c8	0.011337705
171	0x3b19e019	0.002347952
172	0x3e366638	0.17812431
173	0x3d0b920e	0.034074835
174	0x3c7774f4	0.015103567
175	0x3ba951e2	0.005167232
176	0x3ed0b1d1	0.40760663
177	0x3dc611f9	0.09671397
178	0x3d7cf453	0.061756443
179	0x3dc365e8	0.095409214
180	0x3e90c890	0.28278017
181	0x3db0f915	0.086412586
182	0x3f3b6257	0.7319693
183	0x3b8fc65d	0.0043876604
184	0x3ed594ed	0.41715184
185	0x3c216671	0.009851084
186	0x3df7b7ed	0.12095628
187	0x3e1480b9	0.14502229
188	0x3e04ecbb	0.1298093
189	0x3b82a773	0.0039872467
190	0x3f06db15	0.5267804
191	0x3b8fec5c	0.00439219
192	0x3c76a9c5	0.015055125
193	0x3ba7e892	0.00512416
194	0x3e5d8a5a	0.21634808
195	0x3e844d65	0.25840297
196	0x3ca97eef	0.02069041
197	0x3ed2e253	0.41188297
198	0x3e45cd25	0.19316538
199	0x3bf60383	0.007507743
200	0x3ca5431f	0.020173607
201	0x3e86bfa4	0.26318085
202	0x3ba2a7d7	0.0049638557
203	0x3d09d395	0.033649046
204	0x3d62937b	0.05531643
205	0x3e27efd9	0.16400088
206	0x3c17e44c	0.009270739
207	0x3e1d8d33	0.15385894
208	0x3bcf6ffc	0.0063304882
209	0x3b8a037e	0.004211842
210	0x3e736556	0.23769125
211	0x3e933b5c	0.28756225
212	0x3eb8acc6	0.36069316
213	0x3b52b7d4	0.0032153027
214	0x3c5218e2	0.012823315
215	0x3d80d800	0.06291199
216	0x3e5036b6	0.2033337
217	0x3eb007d8	0.34380984
218	0x3ca18ece	0.019721415
219	0x3ecdf214	0.40223753
220	0x3ca08ce0	0.019598424
221	0x3cc92d0d	0.024557615
222	0x3ccbb69c	0.024867348
223	0x3ee6d761	0.45086196
224	0x3d2c2741	0.042029623
225	0x3ce01bc8	0.027356997
226	0x3c46aea8	0.012126602
227	0x3dc0c2d0	0.094121575
228	0x3c14e518	0.009087823
229	0x3bf6aa58	0.007527631
230	0x3c1913d8	0.00934311
231	0x3eeb0914	0.45905364
232	0x3cb1dfc7	0.02171315
233	0x3d120730	0.035651386
234	0x3c2d2e05	0.010570054
235	0x3df817c4	0.12113908
236	0x3d4af209	0.04954723
237	0x3e6c71c9	0.2309028
238	0x3d697abd	0.057001818
239	0x3d0820e3	0.03323449
240	0x3b9709e6	0.0046093343
241	0x3d640548	0.0556691
242	0x3c1de9fc	0.009638306
243	0x3a8fe841	0.0010979251
244	0x3c8206e9	0.015872436
245	0x3cda026e	0.026612487
246	0x3b4195b4	0.0029538693
247	0x3d0e88ea	0.03479854
248	0x3d1543c9	0.036441598
249	0x3c22408e	0.009903086
250	0x3e868518	0.26273417
251	0x3bdc56cb	0.0067242137
252	0x3c51374d	0.012769532
253	0x3c19d073	0.009388077
254	0x3bb50b5e	0.0055250367
255	0x3f00817f	0.50197595

4.weight f4 [128, 256]
0	0x3d003a01	0.031305317
1	0x3c9b0ae1	0.018926086
2	0xbbb344cb	-0.0054708472
3	0xbd390b44	-0.04517676
4	0x3d7f7112	0.06236369
5	0x3d83450b	0.06409653
6	0x3d2049a6	0.039132737
7	0xbd736cbb	-0.059429865
8	0x3cced48e	0.025247838
9	0x3d1ae961	0.037820224
10	0x3a8c523d	0.0010705661
11	0x3cc6bc62	0.02425975
12	0xbd74e2c6	-0.05978658
13	0x3c2cbc71	0.010542975
14	0xbb8afe97	-0.0042417753
15	0xbb64adeb	-0.0034893702
16	0xbd97e568	-0.07416803
17	0xbd029b1f	-0.031886216
18	0xbcedaa80	-0.029011965
19	0xbccaef48	-0.024772301
20	0xbd48570a	-0.048911132
21	0x38e9b91d	0.00011144786
22	0xbd0c43f8	-0.034244508
23	0xbc6eaefd	-0.014568088
24	0x3c85d14e	0.016335156
25	0x3d119974	0.035546735
26	0x3d21e6ba	0.03952668
27	0x3cdc38cf	0.026882557
28	0x3c2c0b68	0.010500766
29	0x3cf71246	0.03016008
30	0x3baf54ac	0.00535067
31	0x3cf1484f	0.029453425
32	0xbc671584	-0.014104251
33	0xbcc81aa1	-0.02442676
34	0x3b7e6050	0.003881473
35	0x3cf6e863	0.030140107
36	0x3b2855bc	0.0025685867
37	0x3b87a2e8	0.004139293
38	0xbc90412f	-0.017609207
39	0x3c9d91da	0.019234587
40	0xbc64ab83	-0.013956907
41	0x3d2e5e92	0.042570658
42	0x3cdb7a9a	0.02679186
43	0x3d4f9127	0.050675537
44	0xbd906a98	-0.07051581
45	0xbd2ae878	-0.041725606
46	0xbcfcfe18	-0.03088288
47	0xbca91fc8	-0.020645037
48	0xbc50510b	-0.012714635
49	0x3ca53e91	0.020171436
50	0x3cb0d8ce	0.021587756
51	0x3c8d7e90	0.017272264
52	0x3c858858	0.016300365
53	0xbc9154d6	-0.017740648
54	0x3cde87b0	0.02716431
55	0xbd55e8f4	-0.052224115
56	0xbd9603d4	-0.07324949
57	0x3d044278	0.032289952
58	0xbc965d55	-0.018355051
59	0xbd8d543e	-0.069008335
60	0xbd31a0fc	-0.043366417
61	0x3ccc084d	0.024906302
62	0x3c2fdac5	0.010733311
63	0xbc7526ea	-0.014962891
64	0x3d102ef9	0.035201047
65	0x3a8fdfd4	0.001097674
66	0x3cd421e4	0.025895067
67	0x3c21aec4	0.0098683275
68	0x3d0ff144	0.0351422
69	0x3d6ad388	0.05733064
70	0xbc701aa4	-0.014654789
71	0xbc969478	-0.018381342
72	0x3d35320b	0.044237178
73	0xbd381ba1	-0.044948224
74	0xbc3fd54a	-0.011708567
75	0x3ca04abe	0.01956689
76	0xbc876904	-0.016529568
77	0xbb86c95d	-0.00411336
78	0x3d631ed3	0.05544932
79	0x3c907ebc	0.017638557
80	0x3d4a2513	0.049351763
81	0xbc8fc8ef	-0.017551867
82	0xbd8efb9a	-0.06981583
83	0xbd006d2c	-0.031354114
84	0x3c9f9f2d	0.01948508
85	0x3c12d5a8	0.008962072
86	0xbd925651	-0.0714537
87	0x3cae121d	0.021248871
88	0xbcc54acc	-0.024083517
89	0x3cfccc13	0.030859029
90	0x3afcf9a2	0.0019300471
91	0xbd3df312	-0.046374388
92	0xbca2c59f	-0.019869624
93	0x3a3d4175	0.00072195317
94	0xbd07143b	-0.032978278
95	0xbc763d1c	-0.015029218
96	0x3c4b8137	0.012420944
97	0x3d6a8bee	0.057262354
98	0xbc8ae3e8	-0.016954377
99	0xbd511910	-0.051049292
100	0xbcfc3a70	-0.030789584
101	0xbd2e5cb0	-0.042568862
102	0xbd090727	-0.033454087
103	0xbd58aca6	-0.052899025
104	0x3d326e2f	0.04356211
105	0xbd169e18	-0.036771864
106	0x3d156ab4	0.036478713
107	0x3d05006e	0.032471113
108	0x3d03f09d	0.03221189
109	0x3d7dc176	0.061952077
110	0xbbe0ba37	-0.006858136
111	0xbd0f8975	-0.0350432
112	0x3d3158c4	0.043297544
113	0x3c8b89ed	0.017033542
114	0xbbc976c7	-0.0061481926
115	0xbd64d8a7	-0.05587068
116	0x38ca1895	9.636689e-05
117	0x3d213529	0.039357338
118	0x3c8f5a05	0.01749898
119	0xbc56e523	-0.013116154
120	0xbd830be4	-0.06398752
121	0x3d42d15a	0.047562934
122	0xbd129956	-0.035790764
123	0x3d5c76a6	0.05382409
124	0x3d1fe9b4	0.039041236
125	0x3d079f08	0.03311065
126	0x3d10dd1a	0.03536711
127	0xbd013e11	-0.03155333
128	0xbc8a2208	-0.01686193
129	0xbd16269d	-0.03665792
130	0x3b22afd1	0.0024824033
131	0xbd2c4301	-0.042056087
132	0xbc8a8902	-0.016911034
133	0xbcfec1fe	-0.031098362
134	0x3d51ce48	0.051222116
135	0xbd08da2e	-0.033411197
136	0xbcb0fb1a	-0.02160411
137	0x3cf5cff1	0.03000638
138	0x3bec5b9f	0.0072130705
139	0xb9f49b18	-0.0004665486
140	0xbcba0f08	-0.022712246
141	0x3cdcd339	0.026956188
142	0x3d8a5680	0.0675478
143	0xbc0bea36	-0.008539727
144	0xbd87328c	-0.06601438
145	0xbb930d3e	-0.0044876626
146	0x3cc90d36	0.024542432
147	0x3d847c3e	0.0646901
148	0x3d03b760	0.032157302
149	0x3d5ee8ca	0.054421224
150	0x3d2138ce	0.039360814
151	0x3d11bc3b	0.0355799
152	0x3c6979ff	0.014250278
153	0x3c64b622	0.0139594395
154	0x3c132076	0.008979907
155	0x3c8c8f90	0.0171583
156	0xbc76a8ed	-0.0150549235
157	0xbc5f58b5	-0.013631989
158	0xbd3375a7	-0.043813374
159	0x3be2d000	0.006921768
160	0x3d2a2951	0.04154331
161	0xbd5838d9	-0.05278859
162	0x3cf4f405	0.029901514
163	0xbc5ea171	-0.013588295
164	0x3a278ae5	0.00063912413
165	0xbc746c65	-0.014918421
166	0x3bdfd5e0	0.006830916
167	0x3cbf7b4d	0.023374224
168	0xbbdfc999	-0.0068294522
169	0x3cb79cc0	0.022413611
170	0xbcdca592	-0.026934419
171	0xbd406ccb	-0.046978753
172	0xbd08da6d	-0.033411432
173	0x3d0f7f9b	0.035033803
174	0xbd532f07	-0.05155852
175	0xbd91c4f6	-0.071176454
176	0xba9d6114	-0.0012007081
177	0x3c5a2730	0.013315007
178	0x3cd0e101	0.025497915
179	0xbd21c4e5	-0.039494414
180	0x3d37687b	0.044777375
181	0xbc96759b	-0.018366626
182	0x3d400183	0.04687644
183	0xbc5aadec	-0.01334713
184	0x3bc36769	0.005963255
185	0xbc36f2fb	-0.0111663295
186	0xbae03299	-0.0017104923
187	0x3d6eea60	0.058328986
188	0x3cb2a2ce	0.021806147
189	0x3d0c19a0	0.034204125
190	0xbcf010de	-0.029304918
191	0x3c88dfa4	0.016708203
192	0x3d1527cb	0.036414903
193	0x3d623e19	0.055235002
194	0x3d10afb9	0.035323832
195	0x3bc0c965	0.005883383
196	0x3c94c45e	0.018160041
197	0x3cf8805a	0.03033464
198	0xbb2bd5ab	-0.0026219885
199	0xbcc3799a	-0.023861695
200	0x3d33974b	0.043845456
201	0xbb8cd339	-0.0042976406
202	0xbd5e2c23	-0.05424131
203	0x3d1de004	0.038543716
204	0xbd511168	-0.05104199
205	0xbd8349e6	-0.064105794
206	0xbd1ffe4e	-0.039060883
207	0xbc2e7ea4	-0.010650311
208	0x3d66bd2e	0.05633276
209	0x3d66487b	0.056221467
210	0x3d25d951	0.040490452
211	0x3c7cc7d6	0.015428504
212	0xbb67f62e	-0.0035394537
213	0xbd16f9bc	-0.03685926
214	0x3c25be03	0.010116103
215	0x3d01734e	0.031604104
216	0xbd5645fc	-0.052312836
217	0xbd07c68e	-0.03314834
218	0xbcbc5caf	-0.022993414
219	0xbb53c078	-0.0032310765
220	0xbd381267	-0.044939425
221	0x3d4caca8	0.049969345
222	0x3d31a55b	0.043370586
223	0xbca90e93	-0.020636832
224	0xbc1177f8	-0.0088787
225	0x3d848b99	0.06471939
226	0x3d441834	0.047874644
227	0x3d87f27b	0.06638046
228	0x3b271c83	0.0025499172
229	0x3d5b202c	0.05349748
230	0x3d73c137	0.059510436
231	0x3d1a289f	0.037636396
232	0x3d6c525c	0.05769573
233	0x3c1acafa	0.009447807
234	0xbba748e5	-0.0051051253
235	0xbc073007	-0.008251197
236	0x3d543314	0.051806524
237	0x3c0e8992	0.0086997915
238	0xbd4075ca	-0.046987332
239	0x3ba6e4b2	0.0050931806
240	0x3d858f2c	0.065214485
241	0xbd00b497	-0.031422224
242	0xbc9cf72d	-0.019160831
243	0x3cf52179	0.029923188
244	0x3c82629a	0.015916158
245	0xbd8409d2	-0.064471856
246	0xbd64b634	-0.055837825
247	0x3b3b5b96	0.0028588525
248	0xbbd3c219	-0.006462347
249	0x3d1bb125	0.038010735
250	0xbc74b383	-0.014935377
251	0xbaeb95e2	-0.0017973746
252	0x3d155b5f	0.03646409
253	0xbc0a1e7b	-0.008430119
254	0xbcf77714	-0.030208148
255	0xbcae145c	-0.021249942
